continuous_CBS/ppo_road-sparse/policy.pth (torch, 770351 bytes, 10 tensors)

mlp_extractor.policy_net.0.weight f4 [64, 1426]
0.058914043 0.028898519 -0.0082939435 0.028589724 0.029415939 -0.053164817 -0.030380681 0.013115313
-0.003967954 0.027460573 0.03142305 -0.04777631 0.02120061 0.09479416 0.0601449 0.018293185
0.03314392 0.0076321457 -0.005629769 -0.028232427 0.010863181 -0.024073862 -0.015397161 0.022468168
0.048126347 -0.032272246 -0.027121613 -0.001247143 0.039004106 -0.0140228355 0.0134414425 0.005305458
-0.033483155 -0.04449015 0.100466475 -0.039236654 -0.059833895 -0.04705627 0.025032828 -0.06608483
-0.06259576 -0.03887896 0.016918007 -0.061632317 -0.016593296 -0.0026216172 0.0471184 0.029220816
0.0142435245 0.033801496 0.043592088 -0.009459541 0.004082444 -0.041113466 -0.052868273 -0.007116521
0.037180662 0.034187485 -0.004835645 -0.016559629 0.06479691 0.07110967 -0.03844313 -0.007985783
-0.0012599793 0.004987636 0.071804605 -0.03380011 0.012440784 0.056120545 -0.02746757 -0.04163463
-0.029512683 0.028795341 0.0023426083 -0.020608487 -0.042576417 -0.020104002 -0.0062526343 0.028045949
-0.00094894104 -0.022261785 -0.0006887651 0.026246786 -0.0053281747 -0.003265709 -0.008986699 -0.084661014
-0.014589894 -0.018740645 -0.01138421 0.021342834 0.056236994 0.0088509945 -0.09277313 0.0026575024
0.0454824 -0.037906926 0.040299907 -0.01138396 0.031005042 -0.025606306 -0.021762338 0.027486306
0.0365412 0.0022009525 -0.0006002645 -0.0024618432 0.0946177 -0.027863005 0.026631387 -0.07045952
-0.012914577 0.06125857 0.017324748 0.03756489 0.03243544 -0.04175748 0.030372502 -0.014414218
0.032346684 0.008433564 0.0285434 0.016413728 0.029002463 0.09114429 0.039306078 0.019578438
0.06435334 0.004966434 0.0059021213 0.031487405 -0.046787437 -0.00029800864 0.04136224 -0.04370325
-0.016262162 -0.0055760285 0.05437566 0.008575312 0.011966648 -0.050117347 0.038761415 -0.04346937
-0.024080733 -0.0316921 -0.066063516 -0.036855217 -0.0041062655 -0.109924026 0.07979618 -0.020208836
-0.05245595 -0.0049001505 -0.029299987 -0.01639035 0.019631624 -0.0034226128 -0.046386827 -0.02269083
-0.070872724 -0.0065177446 -0.02510098 0.03429981 0.0017178647 -0.040442 -0.0037602615 0.071144894
-0.059153255 0.04396572 0.021053974 -0.01032105 0.035256185 -0.032650366 -0.021672517 0.013921401
0.024692295 -0.001588783 -0.028957492 -0.012048987 -0.025529316 0.026151564 0.0438046 0.0065662405
0.0700677 0.0075419527 0.006422311 0.05238704 -0.055485446 0.006380021 0.0042076115 0.002945121
-0.0014250623 0.017892156 0.031772457 -0.025616053 -0.016603734 0.08443912 -0.056524597 0.036282808
0.03773738 -0.01309218 -0.0021836252 0.015609475 0.026282026 0.041192602 -0.023870004 0.017844317
0.024260476 0.0371884 0.026581671 -0.031404804 -0.03170902 -0.023195248 0.029567484 -0.039170913
0.022139078 -0.0043674437 0.0057300813 -0.01879508 0.012125837 0.01271012 -0.002945561 0.036930077
0.007956126 -0.024024108 -0.039738577 0.00076725776 -0.00660564 0.011930824 0.017371058 -0.042182997
-0.002949552 -0.070412 -0.028035989 -0.008802233 -0.048915748 0.02918088 -0.017605344 -0.0037641122
-0.016321158 -0.01731164 0.04996487 -0.028689876 -0.0052889907 0.035635993 -0.02911735 0.03309675
0.026329357 -0.033701327 0.004760884 0.028061612 -0.07698587 -0.013827546 0.03181724 0.048769955
00000000: da4f 713d 96bc ec3c 52e3 07bc ff34 ea3c
00000010: b2f9 f03c 5ac3 59bd e8e0 f8bc 9ce1 563c
00000020: 9c05 82bb fff4 e03c 75b5 003d 18b1 43bd
00000030: e7ac ad3c 7123 c23d 805a 763d 97db 953c
00000040: ebc1 073d 1417 fa3b ed79 b8bb b147 e7bc
00000050: 7cfb 313c 8c36 c5bc 6044 7cbc 2a0f b83c
00000060: 2220 453d e72f 04bd 252e debc 2d77 a3ba
00000070: c5c2 1f3d 09c0 65bc 7f39 5c3c 68d9 ad3b
00000080: a225 09bd 4e3b 36bd 5ec1 cd3d 9db6 20bd
00000090: 6314 75bd 13be 40bd a511 cd3c 7c57 87bd
000000a0: 3532 80bd 8b3f 1fbd a297 8a3c 2b72 7cbd
000000b0: aaee 87bc 70cf 2bbb 39ff 403d 7e60 ef3c
000000c0: ac5d 693c 7073 0a3d 9e8d 323d 31fc 1abc
000000d0: 06c6 853b 9866 28bd 678c 58bd b431 e9bb
000000e0: c04a 183d 2d08 0c3d 5574 9ebb 0fa8 87bc
000000f0: 3eb4 843d f2a1 913d 8b76 1dbd cdd6 02bc
00000100: e425 a5ba 536f a33b 4b0e 933d fc71 0abd
00000110: 6ed4 4b3c a8de 653d ab03 e1bc 1389 2abd
00000120: 95c4 f1bc 35e4 eb3c 7286 193b 21d3 a8bc
00000130: 9c64 2ebd 26b1 a4bc e6e2 ccbb 9ec0 e53c
00000140: 5bc2 78ba 595e b6bc 3e8e 34ba 8003 d73c
00000150: f897 aebb 8105 56bb f33c 13bc c162 adbd
00000160: 730a 6fbc fb85 99bc d684 3abc 2bd7 ae3c
00000170: c358 663d c303 113c d7ff bdbd 7e29 2e3b
00000180: c14b 3a3d 4b44 1bbd 8411 253d ca83 3abc
00000190: 49fe fd3c 51c4 d1bc ee46 b2bc f62a e13c
000001a0: 3aac 153d db3d 103b 125b 1dba e056 21bb
000001b0: edc6 c13d f540 e4bc 112a da3c 154d 90bd
000001c0: a997 53bc 44ea 7a3d a1ec 8d3c a4dd 193d
000001d0: 06db 043d e409 2bbd c1cf f83c 9d29 6cbc
000001e0: f57d 043d ee2c 0a3c d9d3 e93c 1576 863c
000001f0: 9396 ed3c dca9 ba3d 69ff 203d f662 a03c
00000200: afcb 833d 78bd a23b 9566 c13b f0f8 003d
00000210: 2fa4 3fbd 0b3e 9cb9 746b 293d 2e02 33bd
00000220: 3a38 85bc 1eb7 b6bb 03b9 5e3d 777f 0c3c
00000230: c20f 443c d947 4dbd 4ac4 1e3d f00c 32bd
00000240: f544 c5bc 93cf 01bd 4f4c 87bd 7ff5 16bd
00000250: da8d 86bb d91f e1bd 2e6c a33d 008d a5bc
00000260: 0ddc 56bd 7191 a0bb 8706 f0bc 0e45 86bc
00000270: 80d2 a03c ea4d 60bb 1d00 3ebd 1fe2 b9bc
00000280: b825 91bd ce92 d5bb 92a0 cdbc f57d 0c3d
00000290: f929 e13a 83a6 25bd b86e 76bb 6ab4 913d
000002a0: af4a 72bd 6615 343d 6279 ac3c 9f19 29bc
000002b0: ca68 103d 64bc 05bd 908a b1bc 9716 643c
000002c0: 7f47 ca3c b63e d0ba 4338 edbc 1d69 45bc
000002d0: db22 d1bc ce3b d63c 746c 333d 9e29 d73b
000002e0: a87f 8f3d 7c22 f73b 4072 d23b cb93 563d
000002f0: b544 63bd 7f0f d13b 01e0 893b ee02 413b
00000300: 28c9 baba 9292 923c d623 023d c2d8 d1bc
00000310: 8e04 88bc 6bee ac3d 5686 67bd 489d 143d
00000320: 8392 1a3d 9580 56bc 271b 0fbb e2be 7f3c
00000330: 674d d73c 93b9 283d 078b c3bc 3f2e 923c
00000340: e8bd c63c dd52 183d cec1 d93c 53a2 00bd
00000350: 51e1 01bd f603 bebc 8237 f23c ae71 20bd
00000360: 035d b53c c61c 8fbb 68c3 bb3b 24f8 99bc
00000370: 72ab 463c 1b3e 503c 500a 41bb fe43 173d
00000380: 695a 023c 35ce c4bc ebc4 22bd cc21 493a
00000390: 2074 d8bb 8179 433c c04d 8e3c 14c8 2cbd
000003a0: 454d 41bb 2b34 90bd bbab e5bc 3e37 10bc
000003b0: e15b 48bd be0c ef3c 1539 90bc 53af 76bb
000003c0: f3b3 85bc 24d1 8dbc f7a7 4c3d 0807 ebbc
000003d0: 454f adbb 0cf7 113d 8287 eebc 7590 073d
000003e0: aab0 d73c 670a 0abd 3101 9c3b 77e1 e53c
000003f0: c5aa 9dbd ee8c 62bc cb52 023d 01c3 473d

mlp_extractor.policy_net.0.bias f4 [64]
0.0 0.0 0.0 0.0 0.0 0.0 0.0 0.0
0.0 0.0 0.0 0.0 0.0 0.0 -1.6601344e-09 0.0
0.0 0.0 0.0 0.0 0.0 0.0 0.0 0.0
0.0 0.0 0.0 0.0 0.0 0.0 0.0 0.0
0.0 0.0 0.0 0.0 0.0 0.0 0.0 0.0
-1.1455566e-07 0.0 0.0 0.0 0.0 0.0 0.0 0.0
0.0 0.0 0.0 0.0 0.0 0.0 0.0 0.0
0.0 0.0 0.0 0.0 0.0 0.0 0.0 0.0
00000000: 0000 0000 0000 0000 0000 0000 0000 0000
00000010: 0000 0000 0000 0000 0000 0000 0000 0000
00000020: 0000 0000 0000 0000 0000 0000 0000 0000
00000030: 0000 0000 0000 0000 c92a e4b0 0000 0000
00000040: 0000 0000 0000 0000 0000 0000 0000 0000
00000050: 0000 0000 0000 0000 0000 0000 0000 0000
00000060: 0000 0000 0000 0000 0000 0000 0000 0000
00000070: 0000 0000 0000 0000 0000 0000 0000 0000
00000080: 0000 0000 0000 0000 0000 0000 0000 0000
00000090: 0000 0000 0000 0000 0000 0000 0000 0000
000000a0: a401 f6b3 0000 0000 0000 0000 0000 0000
000000b0: 0000 0000 0000 0000 0000 0000 0000 0000
000000c0: 0000 0000 0000 0000 0000 0000 0000 0000
000000d0: 0000 0000 0000 0000 0000 0000 0000 0000
000000e0: 0000 0000 0000 0000 0000 0000 0000 0000
000000f0: 0000 0000 0000 0000 0000 0000 0000 0000

mlp_extractor.policy_net.2.weight f4 [64, 64]
0.2742191 0.4732436 -0.083675966 -0.18589175 -0.08653807 -0.07747284 -0.1393095 -0.03272351
0.27253973 -0.2238175 -0.18046233 -0.15707278 -0.00379377 0.02558663 -0.106040664 -0.062157772
-0.22415075 0.021794233 -0.16569276 0.088084176 -0.028390542 0.15639958 -0.055575244 -0.23223853
-0.04850715 0.15171705 0.3251437 -0.20401403 -0.1895463 0.029412335 0.12134235 0.0009664521
-0.11807796 0.396812 -0.050802853 0.045040302 -0.28084448 -0.15563503 0.18551283 0.2895901
0.09702528 0.101547204 -0.15698826 0.028447526 0.034386083 -0.102535374 0.059967786 -0.2990161
0.004477596 0.005271921 -0.083547406 0.25064301 0.014259344 -0.018384144 -0.0006991197 0.34719634
-0.037084483 -0.13384587 0.16245423 0.061393693 0.13460428 0.3413807 0.017199779 -0.335788
0.0816907 0.08020501 -0.53142685 -0.0825525 0.27335447 -0.16570531 -0.05585852 -0.03443786
-0.11459708 0.11653578 0.20801333 -0.018838959 -0.008040053 0.3335017 0.022635954 0.06072453
0.15611567 -0.112111755 -0.16251917 0.12164457 -0.04587126 -0.13861078 -0.43591395 0.06731106
-0.056998186 -0.00078647916 -0.19364697 -0.117036834 -0.11077578 0.024299338 0.1997107 -0.23465718
0.031061517 0.27624354 0.13061908 0.03408388 0.2913367 3.0426101e-05 -0.4107781 -0.1856268
-0.07557208 -0.1200571 -0.025349414 -0.28896272 0.23630154 -0.34480786 0.09464125 -0.14427815
0.08757224 0.12999041 0.073646344 0.14396633 -0.019537734 0.09396324 -0.026658747 0.2093485
0.107622325 -0.12724246 0.039068215 0.15356165 0.116241015 -0.1340359 -0.08303489 0.24671231
-0.09108477 -0.2646519 -0.083137706 -0.3369979 0.29772025 -0.17772748 -0.038160052 -0.14359018
0.080335446 -0.050525717 -0.08103946 0.016705636 0.13033433 -0.00994865 0.047109883 -0.13452905
0.20277593 0.25889862 0.26414004 0.061602984 -0.29266596 0.12103319 -0.023127137 -0.17929617
-0.20254056 0.08699268 0.19022188 -0.09671059 0.35564223 -0.28030947 -0.12349594 0.13869762
-0.025120204 0.2681993 -0.030977067 -0.16050166 -0.024741812 -0.15826909 -0.22115876 -0.21364139
-0.0013131709 -0.23905146 -0.13293284 0.25648376 -0.03794825 0.012827169 -0.17550418 0.095409706
-0.1263841 -0.07159565 0.34168437 -0.07924302 0.04792045 0.044822842 -0.36975384 -0.09512243
0.0053223437 -0.14129427 -0.031243268 -0.14533246 -0.075800255 0.2340665 -0.37160027 -0.1436342
-0.011913075 -0.21090843 0.05213297 0.09936068 -0.1584647 -0.42294565 0.3161178 0.066994086
-0.009419327 -0.15026595 0.013643419 0.17177658 0.24576388 -0.15109451 0.16706398 -0.05648932
0.048477937 -0.046806924 0.015040606 0.089474574 0.043735273 0.18506229 -0.031034516 -0.013184567
0.1582552 -0.052035637 0.07131373 -0.25847593 -0.07505988 0.15247566 0.14481176 0.12511392
0.18813719 0.2226049 0.31591234 -0.3704137 0.08837804 0.10832082 -0.08895864 0.2449449
-0.08151086 -0.11845884 0.23872827 -0.06990927 -0.17918536 -0.10368091 0.010695595 0.4233956
0.06284324 -0.25984317 -0.044326298 0.23195702 0.20898585 -0.30338994 -0.17330895 0.31802565
-0.22641118 0.123429194 0.0757401 -0.047327224 0.1183994 -0.16569735 0.16343969 -0.03553723
00000000: 7266 8c3e fc4c f23e 4e5e abbd 685a 3ebe
00000010: df3a b1bd 15aa 9ebd 26a7 0ebe 1609 06bd
00000020: 548a 8b3e 6a30 65be 1ecb 38be b0d7 20be
00000030: e6a0 78bb 0d9b d13c d92b d9bd 2699 7ebd
00000040: c687 65be d289 b23c 5dab 29be 7a65 b43d
00000050: 4893 e8bc 3627 203e dea2 63bd f0cf 6dbe
00000060: 6faf 46bd b75b 1b3e 3c79 a63e 0ee9 50be
00000070: 6d18 42be 23f2 f03c 5782 f83d 8159 7d3a
00000080: dcd2 f1bd f12a cb3e a716 50bd 2e7c 383d
00000090: d9ca 8fbe ca5e 1fbe 13f7 3d3e 2745 943e
000000a0: 31b5 c63d fbf7 cf3d 88c1 20be c90a e93c
000000b0: 6cd8 0c3d 11fe d1bd c8a0 753d a318 99be
000000c0: ccb8 923b 14c0 ac3b e71a abbd 4854 803e
000000d0: 06a0 693c 589a 96bc 2145 37ba b8c3 b13e
000000e0: e6e5 17bd e40e 09be 675a 263e f477 7b3d
000000f0: b4d5 093e 73c9 ae3e 8de6 8c3c 68ec abbe
00000100: 744d a73d 8642 a43d 970b 08bf 4911 a9bd
00000110: 1ef5 8b3e a7ae 29be e7cb 64bd b70e 0dbd
00000120: e0b1 eabd 50aa ee3d 7201 553e 2954 9abc
00000130: 6dba 03bc bcc0 aa3e 096f b93c 49ba 783d
00000140: c9dc 1f3e d99a e5bd 6d6b 26be ca20 f93d
00000150: 81e3 3bbd fcef 0dbe 1d30 dfbe 62da 893d
00000160: ee76 69bd b92b 4eba 644b 46be 02b1 efbd
00000170: 6ade e2bd 680f c73c f680 4c3e f949 70be
00000180: b974 fe3c cb6f 8d3e 02c1 053e 8a9b 0b3d
00000190: 152a 953e 8e3b ff37 8251 d2be f414 3ebe
000001a0: 89c5 9abd 7fe0 f5bd 93a9 cfbc ecf2 93be
000001b0: 08f9 713e a88a b0be 46d3 c13d a7bd 13be
000001c0: 1359 b33d 351c 053e e5d3 963d e96b 133e
000001d0: 990d a0bc cd6f c03d 7263 dabc 745f 563e
000001e0: 1869 dc3d d94b 02be fe05 203d 443f 1d3e
000001f0: c50f ee3d b540 09be 320e aabd 27a2 7c3e
00000200: a78a babd 7480 87be 1a44 aabd fd8a acbe
00000210: ca6e 983e 31fe 35be b74d 1cbd 4e09 13be
00000220: e986 a43d 0ef4 4ebd 04f8 a5bd 42da 883c
00000230: 5d76 053e aaff 22bc 4bf6 403d fcc1 09be
00000240: 7ea4 4f3e 5c8e 843e 5d3d 873e 6953 7c3d
00000250: 50d8 95be 40e0 f73d 1f75 bdbc 6a99 37be
00000260: cb66 4fbe 3829 b23d 86c9 423e 3410 c6bd
00000270: bd16 b63e b984 8fbe 70eb fcbd c006 0e3e
00000280: e3c8 cdbc 6b51 893e 9ec3 fdbc 8c5a 24be
00000290: 57af cabc 4b11 22be 7177 62be cfc4 5abe
000002a0: b41e acba e8c9 74be 8c1f 08be d751 833e
000002b0: a06f 1bbd 0c29 523c 5eb7 33be 2a66 c33d
000002c0: d56a 01be bda0 92bd 41f1 ae3e 2a4a a2bd
000002d0: 3c48 443d 2898 373d 6050 bdbe 8ccf c2bd
000002e0: 0e67 ae3b 72af 10be e2f1 ffbc 08d2 14be
000002f0: 2a3d 9bbd 21af 6f3e 6442 bebe d814 13be
00000300: 0f2f 43bc 61f8 57be 6289 553d 9d7d cb3d
00000310: 9244 22be 558c d8be 31da a13e 3234 893d
00000320: 8553 1abc 51df 19be a688 5f3c 33e6 2f3e
00000330: 87a9 7b3e 85b8 1abe d212 2b3e 5861 67bd
00000340: cd90 463d 9eb8 3fbd e06c 763c 723e b73d
00000350: c223 333d f880 3d3e 193c febc 1504 58bc
00000360: a70d 223e 5223 55bd ef0c 923d f556 84be
00000370: ffb8 99bd 9422 1c3e 8949 143e dd1d 003e
00000380: 09a7 403e 8af2 633e 43bf a13e dda6 bdbe
00000390: 8cff b43d 4ed7 dd3d f32f b6bd d6d2 7a3e
000003a0: 2aef a6bd 8c9a f2bd 2f75 743e 972c 8fbd
000003b0: 5e7c 37be a856 d4bd 943c 2f3c 4fc7 d83e
000003c0: f5b3 803d 2a0a 85be 7e8f 35bd 2486 6d3e
000003d0: 6300 563e ed55 9bbe e777 31be 42d4 a23e
000003e0: 55d8 67be 72c8 fc3d a01d 9b3d 31da 41bd
000003f0: 627b f23d 91ac 29be bc5c 273e 7d8f 11bd

mlp_extractor.policy_net.2.bias f4 [64]
0.00010904573 -4.6435696e-05 4.6525427e-05 -7.342064e-05 4.7136364e-05 0.00012084788 5.6001118e-05 -8.863998e-05
6.363029e-05 -0.00022717347 0.00022368904 -5.749778e-05 0.0003654547 3.0508967e-05 -2.9637608e-06 1.4066768e-05
-0.0003010673 0.00010983288 -9.411692e-06 9.991994e-05 -0.00013422381 -2.5548112e-05 9.9885474e-05 -0.00030583446
-4.7187208e-05 -3.1925578e-05 -0.000112430025 0.00020937047 0.00023506704 0.00031791095 -6.848781e-07 4.5643086e-05
0.00013057371 -0.00023964318 -0.00026453566 -1.3741033e-05 -0.00031302846 -3.3451284e-05 5.0847693e-06 5.418186e-05
-0.00022227073 -5.5571265e-05 1.9401723e-05 2.2250768e-05 -5.5197547e-06 -0.00025914903 -0.00018595195 1.5226498e-05
-9.312291e-05 0.00027664984 -6.841215e-05 -5.3152875e-05 -0.00018638448 0.00012464452 -6.3013715e-05 -4.0594085e-05
4.4740327e-06 -0.0002032009 -0.00018338783 -1.32650475e-05 0.00010492742 -0.0001509197 0.0001565807 -4.4514447e-05
00000000: 7baf e438 f3c3 42b8 4c24 4338 68f9 99b8
00000010: 49b4 4538 b66f fd38 bee2 6a38 3ae4 b9b8
00000020: 4071 8538 6a35 6eb9 128e 6a39 c529 71b8
00000030: 809a bf39 82ed ff37 06e5 46b6 4f00 6c37
00000040: 92d8 9db9 1456 e638 e9e6 1db7 1c8c d138
00000050: 6ebe 0cb9 2750 d6b7 9b79 d138 6858 a0b9
00000060: e1ea 45b8 d4e7 05b8 69c8 ebb8 758a 5b39
00000070: 547c 7639 49ad a639 77d8 37b5 e470 3f38
00000080: 9dea 0839 ba48 7bb9 60b1 8ab9 4a89 66b7
00000090: f81d a4b9 0b4e 0cb8 d69d aa36 5441 6338
000000a0: 5811 69b9 3115 69b8 e2c0 a237 29a7 ba37
000000b0: 5536 b9b6 65de 87b9 19fc 42b9 5075 7f37
000000c0: fb4a c3b8 500b 9139 7e78 8fb8 77f0 5eb8
000000d0: 3470 43b9 02b3 0239 3b26 84b8 9143 2ab8
000000e0: a61f 9636 5412 55b9 cc4b 40b9 f28c 5eb7
000000f0: 7b0c dc38 3340 1eb9 d02f 2439 06b5 3ab8

mlp_extractor.value_net.0.weight f4 [64, 1426]
0.035849098 0.037562273 0.0067468495 -0.0074596982 0.051105533 -0.07048898 -0.030247973 -0.0063443203
-0.07361764 -0.04715197 0.093032815 0.040200077 -0.038462933 0.034762207 -0.0040882938 -0.0206494
-0.10583114 -0.08033563 0.026234876 -0.0040337075 0.029660061 -0.04619851 0.03514961 0.01783218
-0.067467645 0.011992477 -0.010590791 -0.020014426 -0.060901772 -0.04103383 -0.05081733 -0.06566062
0.025183097 -0.008128098 0.052967303 0.023932487 -0.012979565 -0.020943604 -0.00810308 -0.061521143
-0.050677385 0.02727621 -0.013784985 -0.012569909 0.053809945 -0.04532679 -0.011990259 0.0159032
-0.030278727 0.03509765 0.008261798 -0.015236205 -0.04296124 -0.0020643747 -0.07131786 0.023537455
0.01189232 -0.04772403 0.03751797 -0.012674287 0.03309061 0.006735224 -0.02858487 0.062807485
0.028181063 0.029666279 0.019884845 0.05753953 -0.04494328 -0.02991789 0.05133525 0.00020592845
0.011832023 0.017612945 -0.012747433 0.08307185 0.024425358 -0.0112617975 0.004900792 0.00992375
-0.025865987 0.03511038 -0.01711876 0.05554031 0.012026549 -0.025682993 0.01507587 -0.02985458
0.028290147 -0.0729731 -0.04090082 0.030949118 0.040787823 0.0007199376 0.017408 0.023289818
-0.02995142 0.016329842 0.008237976 -0.014379718 0.014884295 -0.012655101 -0.10316664 -0.043510966
-0.024249785 0.056225248 0.021990586 -0.042085987 0.0076531116 -0.04487191 0.041603703 -0.020493932
-0.048332676 0.0047093453 0.013461875 -0.039143577 -0.044812202 0.059120804 -0.016867526 0.021842469
0.0052020093 0.020574605 0.024351059 -0.04575274 0.019254018 0.07235238 -0.016992534 -0.059440035
-0.049622323 -0.036600366 -0.00637814 0.03616817 -0.01000784 0.021788344 -0.07053052 0.018039543
-0.033781238 -0.029251376 -0.034401022 -0.036254756 0.022203034 0.04862652 -0.09213682 0.041092835
0.011589872 0.029456163 0.032359697 0.09171649 0.07171122 0.024975782 -0.052164447 -0.036608573
0.013174666 -0.02795936 -0.05513348 0.0029273112 0.03205167 0.038449135 -0.03755036 -0.002536036
0.020125633 0.052850112 0.05420548 -0.042246755 -0.0026434266 -0.031875305 -0.023064189 0.06838163
0.010600133 0.018803328 -0.08292829 -0.01815975 -0.052048616 -0.015951766 0.028369742 -0.02261854
0.0120111415 0.12023268 -0.041943554 0.0028851973 -0.019967552 0.047235116 0.05134008 -0.03727267
-0.009172027 0.006915398 -0.0071952105 0.08264411 9.397866e-05 0.035771623 0.009864533 -0.0009525674
0.04956635 0.029853923 0.026488123 -0.010276305 -0.018315764 0.033429816 -0.050560687 0.015294611
-0.02314156 -0.014746982 0.02800771 -0.0029862274 -4.239912e-05 0.005793724 0.06211275 -0.0021168482
0.0032272332 0.049663223 0.012220037 -0.021473637 0.04226621 0.011292012 0.04246177 0.0139506105
-0.018853696 -0.042619012 -0.034748737 -0.048104282 0.051819034 -0.042170845 0.044501375 -0.034044843
0.047145423 0.047930732 0.014431783 -0.0011855251 -0.00045263238 -0.03751906 -0.022301944 -0.028850015
-0.027964657 0.038801786 0.023684867 -0.007350236 0.018532937 -0.025452297 0.028697984 -0.030993406
0.04383044 -0.010689345 0.0059329886 0.04879606 0.0010880047 -0.032685477 -0.013252887 -0.02170958
0.00407376 0.05767594 0.0013136867 0.013908209 0.024150267 -0.010977868 0.044190306 0.009489198
00000000: 81d6 123d e6da 193d ad14 dd3b 7c70 f4bb
00000010: 0954 513d 875c 90bd 99ca f7bc 04e4 cfbb
00000020: d8c4 96bd 6d22 41bd fd87 be3d d6a8 243d
00000030: 4f8b 1dbd d162 0e3d 18f7 85bb ee28 a9bc
00000040: ffbd d8bd 0287 a4bd 86ea d63c 312d 84bb
00000050: a8f9 f23c a63a 3dbd 0af9 0f3d cb14 923c
00000060: 7a2c 8abd 187c 443c ff84 2dbc 4bf5 a3bc
00000070: 2374 79bd 1713 28bd d525 50bd 1379 86bd
00000080: c84c ce3c b72b 05bc 3ef4 583d 100e c43c
00000090: 3ea8 54bc ec91 abbc c8c2 04bc 98fd 7bbd
000000a0: 1793 4fbd 5c72 df3c 6bda 61bc 05f2 4dbc
000000b0: d167 5c3d 96a8 39bd cb72 44bc 6d47 823c
000000c0: 180b f8bc 8ec2 0f3d 7e5c 073c 47a1 79bc
000000d0: 20f8 2fbd 764a 07bb 190f 92bd 9fd1 c03c
000000e0: 01d8 423c 467a 43bd 71ac 193d d0a7 4fbc
000000f0: 058a 073d 27b3 dc3b d12a eabc 36a1 803d
00000100: f9db e63c b206 f33c 8be5 a23c 92ae 6b3d
00000110: 7216 38bd 5d16 f5bc e944 523d 7fee 5739
00000120: 1adb 413c 0649 903c 9cda 50bc 9321 aa3d
00000130: b017 c83c 6783 38bc d396 a03b 3997 223c
00000140: e8e4 d3bc e7cf 0f3d a43c 8cbc 3c7e 633d
00000150: 010b 453c 2465 d2bc c800 773c 9891 f4bc
00000160: bdc0 e73c ec72 95bd 9e87 27bd 0189 fd3c
00000170: 2211 273d 32ba 3c3a 399b 8e3c 4aca be3c
00000180: ae5c f5bc 29c6 853c 93f8 063c e998 6bbc
00000190: 42dd 733c 5757 4fbc 0849 d3bd 8e38 32bd
000001a0: 7ca7 c6bc 724c 663d 9a25 b43c 5b62 2cbd
000001b0: f4c6 fa3b 9ccb 37bd a568 2a3d e4e2 a7bc
000001c0: 7cf8 45bd da50 9a3b 328f 5c3c 0455 20bd
000001d0: 008d 37bd a828 723d c42d 8abc faee b23c
000001e0: 9e75 aa3b 138c a83c df7b c73c 3a67 3bbd
000001f0: 9aba 9d3c 7c2d 943d ed33 8bbc 6577 73bd
00000200: c740 4bbd 44ea 15bd b7ff d0bb 1325 143d
00000210: ecf7 23bc 787d b23c 4e72 90bd aac7 933c
00000220: 325e 0abd 95a0 efbc 16e8 0cbd de7f 14bd
00000230: 23e3 b53c 9a2c 473d 3bb2 bcbd f650 283d
00000240: 72e3 3d3c 0d4e f13c 9a8b 043d dbd5 bb3d
00000250: 55dd 923d 039a cc3c 63aa 55bd dff2 15bd
00000260: 8eda 573c 070b e5bc a5d3 61bd 22d8 3f3b
00000270: 9d48 033d d77c 1d3d 68ce 19bd a033 26bb
00000280: 83de a43c 5c79 583d 9106 5e3d ef0a 2dbd
00000290: 573d 2dbb ae8f 02bd 1cf1 bcbc ab0b 8c3d
000002a0: 2eac 2d3c 7009 9a3c 4fd6 a9bd c2c3 94bc
000002b0: ee30 55bd 47ad 82bc a967 e83c 844a b9bc
000002c0: 61ca 443c 8d3c f63d 01cd 2bbd 9415 3d3b
000002d0: fe92 a3bc 9c79 413d fa49 523d 3aab 18bd
000002e0: 4546 16bc 909a e23b cdc5 ebbb 5141 a93d
000002f0: 6916 c538 4485 123d da9e 213c b7b5 79ba
00000300: 1606 4b3d 3790 f43c 9ffd d83c f25d 28bc
00000310: f10a 96bc b4ed 083d b918 4fbd 4096 7a3c
00000320: 5e93 bdbc 539d 71bc 6d70 e53c 95b4 43bb
00000330: b5d5 31b8 48d9 bd3b f069 7e3d d2ba 0abb
00000340: fd7f 533b aa6b 4b3d 8d36 483c 7be9 afbc
00000350: 551f 2d3d 2202 393c 65ec 2d3d 1a91 643c
00000360: 1173 9abc 4691 2ebd b154 0ebd ff08 45bd
00000370: 3240 543d 56bb 2cbd 1347 363d 9b72 0bbd
00000380: 8f1b 413d 0453 443d 4973 6c3c 9f63 9bba
00000390: 4a4f edb9 96ad 19bd 91b2 b6bc de56 ecbc
000003a0: 2316 e5bc 9fee 1e3d c406 c23c 40da f0bb
000003b0: 63d2 973c 5681 d0bc 0918 eb3c e2e5 fdbc
000003c0: 8c87 333d 5d22 2fbc 8469 c23b 61de 473d
000003d0: 619b 8e3a 35e1 05bd a322 59bc 4ad8 b1bc
000003e0: 2d7d 853b 9b3d 6c3d 0330 ac3a 42df 633c
000003f0: c8d6 c53c 84dc 33bc e500 353d 9578 1b3c

mlp_extractor.value_net.0.bias f4 [64]
0.0 0.0 0.0 0.0 0.0 0.0 0.0 0.0
0.0 0.0 0.0 0.0 0.0 0.0 0.0 0.0
0.0 0.0 0.00050205464 0.0 0.0 0.0 0.0 0.0
0.0 0.0 0.0 0.0 0.0 0.0 0.0 0.0
0.0 0.0 0.0 0.0 0.0 0.0 0.0 0.0
0.0 0.0 0.0 0.0 0.0 0.0 0.0 0.0
0.0 0.0 0.0 0.0 0.0 0.0 0.0 0.0
0.0 0.0 0.0 0.0 0.0 0.0 0.0 0.0
00000000: 0000 0000 0000 0000 0000 0000 0000 0000
00000010: 0000 0000 0000 0000 0000 0000 0000 0000
00000020: 0000 0000 0000 0000 0000 0000 0000 0000
00000030: 0000 0000 0000 0000 0000 0000 0000 0000
00000040: 0000 0000 0000 0000 519c 033a 0000 0000
00000050: 0000 0000 0000 0000 0000 0000 0000 0000
00000060: 0000 0000 0000 0000 0000 0000 0000 0000
00000070: 0000 0000 0000 0000 0000 0000 0000 0000
00000080: 0000 0000 0000 0000 0000 0000 0000 0000
00000090: 0000 0000 0000 0000 0000 0000 0000 0000
000000a0: 0000 0000 0000 0000 0000 0000 0000 0000
000000b0: 0000 0000 0000 0000 0000 0000 0000 0000
000000c0: 0000 0000 0000 0000 0000 0000 0000 0000
000000d0: 0000 0000 0000 0000 0000 0000 0000 0000
000000e0: 0000 0000 0000 0000 0000 0000 0000 0000
000000f0: 0000 0000 0000 0000 0000 0000 0000 0000

mlp_extractor.value_net.2.weight f4 [64, 64]
-0.10834602 -0.15335995 0.105618544 -0.01948328 0.056167096 -0.16743486 -0.036599014 -0.012487647
0.13648242 -0.01032655 0.042681605 0.41722807 0.4620057 -0.22001655 0.52394277 0.32925284
-0.36736664 -0.25678268 -0.086447075 0.052454107 0.048736148 -0.02694133 -0.21122694 -0.038481448
0.18319547 0.059244916 0.011666963 -0.25015908 0.24852498 0.069127366 -0.3462098 0.052775707
0.07881119 -0.061305586 0.102439076 0.047003776 -0.08844704 0.04301293 -0.16150257 -0.11769349
0.54526466 0.07761818 -0.050845623 0.025500365 0.01127424 -0.106544726 -0.038619034 -0.2693895
-0.031070912 -0.13822751 0.15790054 0.071555145 0.095403604 -0.059058215 -0.1970872 0.16227053
0.34219545 -0.18365887 -0.024821429 -0.1795249 0.17387684 -0.26821887 0.17536117 0.21115692
-0.1785715 0.07627721 -0.024094783 -0.24404053 -0.067463845 -0.2445308 0.070721395 -0.32445836
0.26541844 -0.058737308 0.110525236 0.07368936 0.22939447 -0.5009471 -0.058640607 0.3451001
0.14279787 -0.10545013 0.021447387 0.20624556 -0.3017662 -0.28124994 -0.27160403 -0.13065001
-0.071462266 -0.106092796 0.06279692 -0.25912875 0.2551201 0.39198783 0.02838584 0.01220561
0.12989575 -0.17468883 -0.3230171 0.005354568 -0.053744245 0.02885441 0.043339033 -0.009152677
0.1366649 0.038017068 -0.18291356 -0.47272938 0.131755 0.07982752 0.21996273 0.042809453
-0.3755121 0.057521775 0.0825948 -0.30355823 0.23934832 0.1878864 0.36278415 0.057815738
-0.13908741 0.13580562 0.026957804 -0.21390425 0.21708584 -0.015483471 -0.16544676 -0.1843864
0.28305817 0.5638319 0.029819412 -0.052495055 -0.25500253 -0.12579316 0.24111365 -0.17377248
0.20716782 0.0109261805 0.124525085 0.010589733 0.33710554 -0.102676935 -0.0027160575 0.3496188
-0.03367942 -0.12039179 0.085146904 -0.2077837 0.072221965 0.021706523 -0.0630823 -0.058632135
0.51414967 -0.4169027 0.45612392 0.11245405 0.1005484 -0.22682992 -0.19646819 0.143903
-0.17779352 -0.12794872 -0.33081847 0.048771072 0.038748328 -0.13861246 -0.040529575 -0.27877036
0.2027837 -0.025239704 0.08201463 -0.32938758 0.29149285 0.18527845 -0.2262887 0.0379769
0.16212058 -0.1199849 0.06826577 -0.14656553 0.035733555 0.046151504 0.065412804 -0.21393926
0.020521043 -0.056700476 -0.23017696 -0.122494265 -0.016555885 -0.09227311 0.2825258 -0.12295116
0.093362644 -0.045852393 -0.21484765 0.19013943 -0.060709495 0.09353369 -0.056622032 0.09569904
-0.10559573 -0.31599307 -0.0071112136 0.06949305 -0.042470638 0.1872021 0.035636984 0.018230936
-0.2933588 -0.3459377 0.4395566 0.006022174 -0.3716862 0.04986745 -0.055749666 0.015956262
0.08408582 -0.13909587 0.27195644 -0.1936735 0.12940866 0.14269719 -0.3766213 0.11839564
0.4473695 0.04769775 -0.36769074 -0.08989776 0.4441925 0.05070364 -0.12118781 0.119604535
-0.038572337 -0.109237745 -0.28596136 -0.31961718 -0.10522788 0.086086236 -0.070806846 -0.12024633
0.024622152 -0.17368567 0.14084919 0.032446004 0.27291912 0.32337075 0.09736209 -0.23123853
0.23176004 0.1357665 -0.07642459 -0.351597 0.10663107 -0.07101547 0.17323132 -0.033466447
00000000: 85e4 ddbd 640a 1dbe 894e d83d 669b 9fbc
00000010: 780f 663d 0b74 2bbe d9e8 15bd fd98 4cbc
00000020: 0cc2 0b3e b130 29bc e8d2 2e3d eb9e d53e
00000030: 038c ec3e 054c 61be 1d21 063f d493 a83e
00000040: 7b17 bcbe 0579 83be 2a0b b1bd 1eda 563d
00000050: 8e9f 473d 10b4 dcbc e04b 58be b99e 1dbd
00000060: 9897 3b3e ccaa 723d ca26 3f3c da14 80be
00000070: 557d 7e3e a692 8d3d 6942 b1be 572b 583d
00000080: c367 a13d 911b 7bbd 94cb d13d 0887 403d
00000090: b923 b5bd 532e 303d ee60 25be 4909 f1bd
000000a0: 7796 0b3f 48f6 9e3d 8043 50bd 24e6 d03c
000000b0: 97b7 383c 1f34 dabd fe2e 1ebd 6ced 89be
000000c0: 6d88 febc 838b 0dbe aeb0 213e 818b 923d
000000d0: f762 c33d 07e7 71bd 3ad1 49be 3f2a 263e
000000e0: 3e34 af3e 1211 3cbe 4f56 cbbc 60d5 37be
000000f0: c50c 323e fc53 89be e191 333e 8539 583e
00000100: 73db 36be 3a37 9c3d 6c62 c5bc c3e5 79be
00000110: 7c2a 8abd 4866 7abe 61d6 903d 681f a6be
00000120: ede4 873e 8896 70bd 0e5b e23d 72ea 963d
00000130: 62e6 6a3e 123e 00bf 2231 70bd f6b0 b03e
00000140: 9b39 123e 3df6 d7bd 6eb2 af3c 0932 533e
00000150: 1981 9abe feff 8fbe af0f 8bbe 1ec9 05be
00000160: cf5a 92bd 2e47 d9bd ac9b 803d 86ac 84be
00000170: 1a9f 823e a1b2 c83e 6c89 e83c 0afa 473c
00000180: 6403 053e a1e1 32be 7f62 a5be 5f75 af3b
00000190: ed22 5cbd 1560 ec3c 4584 313d 1cf5 15bc
000001a0: e2f1 0b3e c9b7 1b3d b14d 3bbe 9609 f2be
000001b0: c8ea 063e 9c7c a33d e93d 613e f758 2f3d
000001c0: 1f43 c0be f49b 6b3d 7627 a93d fc6b 9bbe
000001d0: ba17 753e 4b65 403e d8be b93e 32d0 6c3d
000001e0: ee6c 0ebe a110 0b3e 9dd6 dc3c b709 5bbe
000001f0: c04b 5e3e 62ae 7dbc e06a 29be cacf 3cbe
00000200: 00ed 903e 4a57 103f d747 f43c 0e05 57bd
00000210: b18f 82be eccf 00be 7fe6 763e 6af1 31be
00000220: cd23 543e b903 333c 0207 ff3d 8f80 2d3c
00000230: 1999 ac3e 4948 d2bd e2ff 31bb 3c01 b33e
00000240: 6ef3 09bd f98f f6bd 8061 ae3d 40c5 54be
00000250: 1ce9 933d e1d1 b13c 4b31 81bd 4028 70bd
00000260: 509f 033f 4574 d5be 1389 e93e 4f4e e63d
00000270: 52ec cd3d 1a46 68be f52e 49be 4f5b 133e
00000280: 810f 36be fd04 03be 0a61 a9be 2dc4 473d
00000290: 91b6 1e3d 6df0 0dbe 5702 26bd fdba 8ebe
000002a0: 88a6 4f3e 7fc3 cebc 49f7 a73d 7da5 a8be
000002b0: 8d3e 953e a2b9 3d3e 3ab8 67be aa8d 1b3d
000002c0: f002 263e a5ba f5bd edce 8b3d 4615 16be
000002d0: 595d 123d 5c09 3d3d 26f7 853d e512 5bbe
000002e0: bf1b a83c c23e 68bd 82b3 6bbe 46de fabd
000002f0: 35a0 87bc aff9 bcbd 39a7 903e d1cd fbbd
00000300: ea34 bf3d b8cf 3bbd 0601 5cbe e9b3 423e
00000310: 85aa 78bd 978e bf3d 81ec 67bd dcfd c33d
00000320: 9342 d8bd d8c9 a1be 2f05 e9bb 5f52 8e3d
00000330: b1f5 2dbd e8b1 3f3e 16f8 113d 0b59 953c
00000340: 2033 96be bf1e b1be 900d e13e a855 c53b
00000350: a74d bebe d041 4c3d c359 64bd b5b6 823c
00000360: 3035 ac3d 266f 0ebe e03d 8b3e 5952 46be
00000370: b483 043e 361f 123e 82d4 c0be 6a79 f23d
00000380: 9d0d e53e b75e 433d f641 bcbe 511c b8bd
00000390: 336d e33e 9fae 4f3d 5131 f8bd 39f3 f43d
000003a0: 07fe 1dbd 0ab8 dfbd 8769 92be dda4 a3be
000003b0: b781 d7bd fb4d b03d 2e03 91bd b543 f6bd
000003c0: 65b4 c93c a8da 31be c53a 103e 1ae6 043d
000003d0: 0ebc 8b3e da90 a53e c765 c73d cbc9 6cbe
000003e0: 8152 6d3e 6006 0b3e 7f84 9cbd 8604 b4be
000003f0: 6461 da3d 8f70 91bd 8d63 313e 1d14 09bd

mlp_extractor.value_net.2.bias f4 [64]
0.08314431 0.09424418 0.08539772 0.08236016 -0.0843554 0.10350026 0.094145685 0.1394669
-0.09267115 0.08428961 0.10648382 0.0792179 -0.06955934 -0.09953858 0.0794051 0.081010565
-0.07675983 0.14509693 -0.07291323 -0.10039775 -0.1250488 -0.051161274 0.08756134 -0.093980595
-0.080097824 -0.080279835 -0.0751398 -0.10027439 -0.08604785 -0.0824424 0.08846487 -0.06112917
0.085359216 -0.08501025 -0.12487681 0.109398685 0.0759365 0.0951573 -0.10062459 0.1095998
0.063778505 -0.07219324 -0.08988574 -0.082314424 -0.10015066 0.094869114 0.097128086 0.07873863
0.08587083 -0.1032978 -0.08357405 -0.087198146 0.0724479 0.10761863 0.09956926 0.10232595
0.10110514 0.07718969 0.081157476 -0.116172776 0.08038778 0.086660996 -0.07575937 0.08856461
00000000: 9047 aa3d 1803 c13d 00e5 ae3d 72ac a83d
00000010: 86c2 acbd f2f7 d33d 74cf c03d 69d0 0e3e
00000020: 5fca bdbd 08a0 ac3d 3014 da3d ff3c a23d
00000030: 2175 8ebd e2da cbbd 249f a23d dee8 a53d
00000040: 4234 9dbd 4a94 143e 8853 95bd 569d cdbd
00000050: cb0c 00be 7c8e 51bd 5c53 b33d e678 c0bd
00000060: 540a a4bd c169 a4bd e5e2 99bd a95c cdbd
00000070: db39 b0bd 90d7 a8bd 122d b53d 9562 7abd
00000080: d0d0 ae3d db19 aebd 6abf ffbd 6b0c e03d
00000090: 9984 9b3d d5e1 c23d 4414 cebd dc75 e03d
000000a0: 4e9e 823d 0dda 93bd 0416 b8bd 7794 a8bd
000000b0: ca1b cdbd bd4a c23d 17eb c63d b841 a13d
000000c0: 0cdd af3d cc8d d3bd df28 abbd f194 b2bd
000000d0: 915f 943d 2867 dc3d f8ea cb3d 4590 d13d
000000e0: 3610 cf3d a115 9e3d e435 a63d feeb edbd
000000f0: 59a2 a43d 527b b13d bb27 9bbd 5d61 b53d

action_net.weight f4 [1, 64]
-0.005931813 0.00439559 -0.006362709 0.004059206 -0.0058203563 -0.002697086 -0.006066495 0.002720645
-0.0046402644 0.002870855 -0.0036051255 0.004743908 -0.0006425682 -0.0031714418 0.0042969757 -0.0054453835
0.0021035692 -0.0036666286 0.0059427815 -0.0050030886 0.0029606035 0.0043482445 -0.00559703 0.0019772334
0.0044908673 0.004393231 0.0050230436 -0.0035445997 -0.0029969676 -0.001756551 0.0027754393 -0.0039014723
-0.0040564705 0.0032815684 0.0024832408 0.0044063497 0.0017901155 0.00374457 -0.0042049596 -0.004158473
0.00068888173 0.005913431 -0.005783981 -0.005673648 0.0048426786 0.0023940303 0.003900889 -0.0005074318
0.004921329 0.00036326225 0.0043238113 0.0056950687 0.0042698495 -0.0033504635 0.004977873 0.0057710037
-0.0043633636 0.0017054282 0.0040832306 0.0064124903 -0.0059124944 0.0050451593 -0.003828771 0.0048945784
00000000: a75f c2bb e208 903b 467e d0bb 1703 853b
00000010: b0b8 bebb 98c1 30bb 73c9 c6bb d94c 323b
00000020: 5c0d 98bb f424 3c3b f843 6cbb c972 9b3b
00000030: 0672 28ba f7d7 4fbb a5cd 8c3b 306f b2bb
00000040: 09dc 093b d24b 70bb aabb c23b f3f0 a3bb
00000050: af06 423b b87b 8e3b 4a67 b7bb 7994 013b
00000060: 2028 933b 18f5 8f3b 5898 a43b 844c 68bb
00000070: c668 44bb 123c e6ba 25e4 353b d8af 7fbb
00000080: 24ec 84bb 950f 573b debd 223b 2463 903b
00000090: 4fa2 ea3a 7667 753b c2c9 89bb cd43 88bb
000000a0: 1296 343a 74c5 c13b 8d87 bdbb 02ea b9bb
000000b0: 55af 9e3b 2ae5 1c3b 0fa6 7f3b 2c05 05ba
000000c0: 1a43 a13b 3c74 be39 c2ae 8d3b b39d ba3b
000000d0: 18ea 8b3b 7393 5bbb 6d1d a33b b01a bd3b
000000e0: 8cfa 8ebb ad88 df3a 9fcc 853b de1f d23b
000000f0: 99bd c1bb dd51 a53b 1eec 7abb b362 a03b

value_net.weight f4 [1, 64]
-1.2559285 -1.0563928 -1.0607222 -1.1411124 1.0310662 -1.0837345 -1.3979409 -1.0143393
1.0407879 -1.1423788 -1.0941534 -1.0691582 1.0089394 1.1167523 -1.170332 -1.0610733
1.09481 -1.0072669 1.0867152 1.1420139 1.0519245 0.9813895 -1.1511625 1.0985879
1.2479638 1.2354099 1.161737 1.0579225 1.3018115 1.0735703 -1.2402725 1.095934
-1.0669926 1.0616769 1.0440496 -1.1450821 -1.1532433 -1.1070452 1.0617858 -1.1157943
-1.124112 1.1987423 1.0800223 1.1703987 1.0962753 -1.2621205 -1.1752509 -1.0241121
-1.403408 1.0804477 1.1636233 1.0522751 -1.1478299 -1.0520519 -1.0730034 -1.1405499
-1.0973577 -1.2337314 -1.1301146 1.122947 -1.1316323 -1.2701262 1.1210217 -1.0705785
00000000: 44c2 a0bf e137 87bf bfc5 87bf f90f 92bf
00000010: faf9 833f d0b7 8abf baef b2bf dfd5 81bf
00000020: 8a38 853f 7839 92bf 380d 8cbf 2dda 88bf
00000030: ed24 813f bdf1 8e3f 70cd 95bf 40d1 87bf
00000040: bc22 8c3f 1fee 80bf 7c19 8b3f 832d 923f
00000050: 76a5 863f 583c 7b3f 4b59 93bf 879e 8c3f
00000060: 47bd 9f3f e921 9e3f ccb3 943f 016a 873f
00000070: c2a1 a63f c06a 893f 40c1 9ebf 9147 8c3f
00000080: 3793 88bf 07e5 873f 6ba3 853f 0d92 92bf
00000090: 7a9d 93bf a8b3 8dbf 99e8 873f 59d2 8ebf
000000a0: e7e2 8fbf 6370 993f 2c3e 8a3f a0cf 953f
000000b0: c052 8c3f 2a8d a1bf 9f6e 96bf 1b16 83bf
000000c0: e0a2 b3bf 1c4c 8a3f 9cf1 943f f3b0 863f
000000d0: 17ec 92bf a3a9 86bf 2d58 89bf 8afd 91bf
000000e0: 3876 8cbf e9ea 9dbf 98a7 90bf babc 8f3f
000000f0: 54d9 90bf 7f93 a2bf a47d 8f3f b708 89bf
