continuous_CBS/ppo_empty-16-16-random/policy.pth (torch, 770351 bytes, 10 tensors)

mlp_extractor.policy_net.0.weight f4 [64, 1426]
000000 26 a9 fd 3c 7f 35 12 3c 56 3c 60 bd ee ef b2 3b
       0.030964445 0.008923887 -0.05474504 0.0054607308
000010 95 c8 21 bd b5 51 6f 3d ee dc c1 3d 1c ed e1 3b
       -0.03949793 0.05842753 0.09465967 0.0068947207
000020 20 c7 20 3d fd 06 f7 3b 5d 31 8e bd 54 81 87 3c
       0.0392524 0.007538675 -0.06943009 0.01654116
000030 a3 8c 3a bd 3f 02 84 bd bf 56 f1 bb 47 6d d4 bc
       -0.045544278 -0.06445741 -0.0073650773 -0.025931014
000040 2b 79 34 bd ff 74 49 bc 82 81 f6 bc 0f 24 40 bd
       -0.044060867 -0.01229596 -0.030091051 -0.04690939
000050 c8 e9 98 3b f6 7c 51 bd 52 7b 6d 3d 3e a4 2e bd
       0.004666541 -0.051144563 0.057978936 -0.042637102
000060 f0 97 f1 3c 61 d8 15 ba 03 6e 6a bd 53 dd 50 bd
       0.029491395 -0.0005716142 -0.05723382 -0.05099232
000070 58 ea 1e bb 4b ea 96 bc c4 4b 07 3d 21 b1 5a bd
       -0.0024248566 -0.018422266 0.03303124 -0.05339158
000080 c3 89 6d bd cd 2d 1a 3d 2e 06 a3 3c dc 64 69 3b
       -0.057992708 0.037641335 0.019900408 0.0035613095
000090 66 59 45 3d 98 31 46 3c 3d 7f b2 bd f5 4d 16 3c
       0.04818096 0.012096785 -0.08715675 0.00917386
0000a0 fe 1f 20 bc d5 43 a3 3d 04 fd a5 3c f4 db 2c bc
       -0.0097732525 0.07971922 0.020262249 -0.010550488
0000b0 1f 8b 70 3c 5b fa cf 3c 21 72 00 3e ee 88 3b bc
       0.014681607 0.025387933 0.12543537 -0.011446221
0000c0 5d 45 94 bc a1 b1 10 bd 7e ae 6c 3d 3f d7 5a bc
       -0.018099481 -0.03532565 0.057783596 -0.013356983
0000d0 3b 4d 6a bd ac e8 2b 3d 20 1a 60 bd 58 f1 c3 39
       -0.05720256 0.04196994 -0.054712415 0.00037373113
0000e0 02 7f cc 3c ad 85 78 3d ae e1 30 3c 76 f8 6a bc
       0.024962906 0.06067436 0.010795994 -0.014341464
0000f0 94 09 85 bb 9e 80 92 bc c0 4d cc 3b d7 a7 b7 3b
       -0.0040599797 -0.017883595 0.0062348545 0.005604725
000100 9b 55 22 3d 1a b6 88 bd c3 6f 10 3c f7 69 3e bb
       0.03963242 -0.06675358 0.008815709 -0.002905486
000110 f4 d0 e5 bc c9 e9 ea 3c 9a 15 f9 bb 83 6c 83 bd
       -0.028053738 0.02867593 -0.007601452 -0.06417181
000120 20 70 88 3c fb 75 43 bc 0f 35 59 3d cb bc 3a bd
       0.016655028 -0.011929984 0.053029116 -0.045590203
000130 82 b2 ea 3c 46 93 44 bd fe e6 da ba aa 2f f6 3c
       0.028649572 -0.047992013 -0.0016700921 0.030052025
000140 6b 93 9b bd db 2f 1b 3d 48 c9 87 3c d1 5c 5c 3a
       -0.07596477 0.037887435 0.01657547 0.00084061647
000150 93 59 21 3d c9 f5 86 3c c2 d9 69 bd 18 82 2e 3d
       0.039392065 0.016474621 -0.057092436 0.042604536
000160 42 c8 18 3c c8 07 bd bc 30 5e da bc e7 be 37 3d
       0.009325089 -0.023075 -0.02665624 0.044859793
000170 96 48 e2 3a c4 9f 71 3d e1 c5 45 3c 3f a8 5d bc
       0.0017264064 0.058990255 0.012071104 -0.0135288825
000180 dd 73 7b 3d d1 c0 bf bb 96 fb 1f bc ef 5f 25 bd
       0.061389793 -0.005851843 -0.009764573 -0.040374693
000190 b0 fe 62 3d 7a 40 b1 3c 4e 42 3f bd b8 cb 4a bc
       0.05541867 0.02163719 -0.046694092 -0.012377672
0001a0 e8 20 a1 bd 4f a5 52 bc 70 cb 67 3d e8 65 ac 3c
       -0.078676045 -0.012856795 0.056590497 0.021044686
0001b0 6a 85 1c 3c 39 b4 7f 3b b9 26 58 bd 4e 91 c7 3c
       0.009553293 0.0039017333 -0.052771304 0.024361279
0001c0 05 e1 5c 3c c3 ce 00 3d e6 62 66 3c a4 a8 fa 3c
       0.013481383 0.031447183 0.014061665 0.030597992
0001d0 2e 11 a5 bc c5 55 30 bd c2 72 97 3d ff c6 95 bc
       -0.020149793 -0.043050546 0.07394935 -0.018283365
0001e0 48 ce 8c 3c 4f 3e ef 3b 78 87 7e bc d9 e0 03 bc
       0.017188206 0.007301129 -0.015535228 -0.008049213
0001f0 f2 33 2f ba 07 a8 94 3c 09 6a 31 3d 2b a1 44 bd
       -0.00066834607 0.018146528 0.043314014 -0.048005264
000200 ac 0c 62 3c 41 11 91 3b ab fc e0 bb dc c4 3a 3d
       0.0137969665 0.0044271057 -0.006866058 0.045597896
000210 5f b2 69 3c 0a 0a 53 3d ac f4 c4 3c b8 a1 39 3c
       0.014263718 0.051523246 0.02404245 0.011330061
000220 8d c1 ea bb 45 79 b4 3c ee 24 7a 3b 92 0a 4d 3d
       -0.0071641863 0.022030482 0.0038168984 0.05005891
000230 dd ac 15 bd fa 3c db 3d 74 2a 4d bd 26 75 bc ba
       -0.03654181 0.1070499 -0.050089315 -0.0014378175
000240 d7 82 04 3c 36 8a b7 3c e4 a5 0c bc 44 14 03 bd
       0.008087835 0.022404771 -0.008584473 -0.03200175
000250 6f b4 ad bc 93 b0 88 bd f5 83 af 3c 80 27 85 bc
       -0.021204202 -0.06674304 0.021425227 -0.016254187
000260 ea ed 31 bd 4e c0 b2 3d 2a af 50 bd 76 95 b2 3c
       -0.043439783 0.087280855 -0.0509483 0.021799784
000270 d6 19 14 bd 1c 49 2a bc 21 5e 84 3c e9 1a 64 3c
       -0.03615745 -0.010393407 0.016158165 0.0139224315
000280 71 2c 41 3c 33 b8 14 3d 74 dd 4d bd ec 10 30 bc
       0.011790381 0.03630848 -0.050260022 -0.010746222
000290 6d 45 79 bd eb ac e4 3c 1b 07 55 bd c4 88 7d 3d
       -0.060857225 0.027914485 -0.05200873 0.061898008
0002a0 30 3f a4 bc 93 35 a3 3a ed 01 0b 3a 32 61 fe bc
       -0.020049661 0.001245188 0.0005302716 -0.031052206
0002b0 38 7e 9b bc 8d 7e 79 3d 73 96 3f 3d 02 ca bb 3a
       -0.018981084 0.060911704 0.04677434 0.0014327171
0002c0 4b 90 81 3d 08 af cf bc e6 76 73 bc 10 cc 6b bc
       0.0632635 -0.025352016 -0.014859891 -0.014391914
0002d0 ef f8 c7 bc b2 2d 41 bc 6d 79 92 3c 46 17 84 3a
       -0.024410693 -0.01179068 0.017880166 0.0010077737
0002e0 5a 91 f7 3a b8 6e 26 3d b3 8a d4 bc ab 75 83 bd
       0.0018887923 0.040632933 -0.025945043 -0.06418928
0002f0 cb 63 6c bc 61 90 ba 3b b6 9d 26 3d de 9c 0a bd
       -0.014428089 0.005693481 0.04067775 -0.033841006
000300 c2 3d 44 bd bc 41 dd b9 37 50 c5 bd f1 b5 30 bd
       -0.04791046 -0.0004220138 -0.096344404 -0.043142263
000310 d4 d6 1f bd 74 d3 b1 3d c7 58 a2 bd a3 6c ab bd
       -0.039023235 0.086829096 -0.07927089 -0.0837033
000320 50 a0 d9 3c dc 80 70 3d 35 bb 35 bd 55 bf 73 bc
       0.0265657 0.05871664 -0.044367988 -0.01487716
000330 a5 11 0a bd f6 db 0d bd 8e 04 1d bc 71 92 1a 3d
       -0.033708233 -0.0346336 -0.009583605 0.037737314
000340 17 8b 20 bd 9d b9 80 3d b9 ac 0f 3d ec a7 3a bc
       -0.039195146 0.06285403 0.03507683 -0.011392575
000350 b7 57 46 bd 0a be 1b 3c 25 2b e5 3c 12 49 cc bc
       -0.048423495 0.009505758 0.027974674 -0.024937186
000360 62 49 8b 3a c6 dd fa bd 83 f0 11 bc 42 ba 74 3d
       0.0010626728 -0.12249331 -0.00890744 0.05974794
000370 60 2a c2 bc 3d 09 b2 3c 27 f0 9b bc 7f a7 67 bb
       -0.023701847 0.02173292 -0.019035412 -0.0035347638
000380 43 15 01 bc 34 ca 8c bd f4 d1 47 bc 36 02 92 bd
       -0.007878604 -0.06874505 -0.012196053 -0.07129328
000390 83 8e 30 3d 11 56 37 bc a7 bb ea bc e0 c8 4f 3d
       0.04310466 -0.011189953 -0.028653933 0.05072868
0003a0 04 db b8 3b 07 45 b6 3b 3d 65 70 3c 74 bf c8 3b
       0.005641343 0.005562428 0.014672575 0.0061263386
0003b0 bb d5 82 3d bf 10 15 bc 2d 2a d4 bb 7c ea 19 bc
       0.06388422 -0.009098231 -0.0064747543 -0.009394284
0003c0 90 fb c9 3c 2d c0 08 bd 6e c1 40 3c 1a 93 68 bc
       0.024656087 -0.033386398 0.011764867 -0.014195228
0003d0 11 af ab bb 87 22 03 3d 32 44 48 3b 9f 44 cd 3c
       -0.0052393754 0.03201535 0.0030558226 0.025057135
0003e0 94 c0 12 bd a6 aa 83 3c d7 c0 56 bd 1a de 0d bd
       -0.035828188 0.016072582 -0.05243 -0.03463564
0003f0 8d cf a9 3d 91 da 56 bd 4e 69 18 3d 9a d7 74 bd
       0.0829154 -0.052454535 0.0372098 -0.059775926

mlp_extractor.policy_net.0.bias f4 [64]
000000 dd f5 11 af 59 59 d8 37 00 00 00 00 9e b2 8c 38
       -1.3275021e-10 2.5790812e-05 0.0 6.70899e-05
000010 00 00 00 00 3b d1 2c 36 35 a8 ca 35 00 00 00 00
       0.0 2.5751785e-06 1.5099127e-06 0.0
000020 db 18 24 38 01 61 43 37 00 00 00 00 00 00 00 00
       3.9123795e-05 1.1645491e-05 0.0 0.0
000030 00 00 00 00 e2 53 67 b6 00 00 00 00 00 00 00 00
       0.0 -3.4470509e-06 0.0 0.0
000040 00 00 00 00 6c 0f 06 b2 00 00 00 00 5e 9f 2b 34
       0.0 -7.803333e-09 0.0 1.5983593e-07
000050 94 b5 46 b3 ec 82 de 38 2a f7 9f b2 b1 34 f6 b3
       -4.6265612e-08 0.00010610171 -1.8622433e-08 -1.1464852e-07
000060 49 42 93 b2 7e 3f 68 31 00 00 00 00 00 00 00 00
       -1.7143195e-08 3.3796534e-09 0.0 0.0
000070 00 00 00 00 6c e2 16 2f 92 ed b4 b5 36 5a 3d 2e
       0.0 1.3722862e-10 -1.3480187e-06 4.3053748e-11
000080 73 5c 2a b5 bc 89 bc 2c c2 98 0e 38 ce e8 6a ac
       -6.3464466e-07 5.358573e-12 3.3997705e-05 -3.3382633e-12
000090 61 79 5d 38 00 00 00 00 cc 59 20 37 5e 25 d1 32
       5.280355e-05 0.0 9.557651e-06 2.4347795e-08
0000a0 15 7f 50 ae 00 00 00 00 00 00 00 00 19 47 08 2d
       -4.7406596e-11 0.0 0.0 7.746492e-12
0000b0 00 00 00 00 00 00 00 00 5e d8 aa 30 6a 16 25 b5
       0.0 0.0 1.2430623e-09 -6.1499907e-07
0000c0 6a f0 81 30 7a 5f 88 b5 52 e3 be 38 73 1b ca 2d
       9.454315e-10 -1.0160577e-06 9.102248e-05 2.2976931e-11
0000d0 4f 9a c8 32 5b 2e c4 b5 15 f7 cb 33 7d 54 ab b5
       2.3353236e-08 -1.4616629e-06 9.497868e-08 -1.2765082e-06
0000e0 8d ef 52 35 bd 78 a3 b5 3d 30 91 30 00 00 00 00
       7.857969e-07 -1.2179586e-06 1.0563849e-09 0.0
0000f0 00 00 00 00 ba 38 f6 b3 db 79 bd 30 00 00 00 00
       0.0 -1.1465586e-07 1.3786193e-09 0.0

mlp_extractor.policy_net.2.weight f4 [64, 64]
000000 02 6c 3f 3d c4 09 be bd 4f 5a 98 3d 03 9d 38 be
       0.046733864 -0.092792064 0.074391 -0.18028645
000010 ae 24 02 3e 02 5a 54 3e e6 09 fa bd 61 1f 42 be
       0.12709305 0.2073746 -0.12208919 -0.18957283
000020 47 70 aa 3e 6b 8d 3c be d3 20 72 bc b1 ca 47 be
       0.33288786 -0.18413322 -0.014778334 -0.19510914
000030 fd c9 be 3e 0d 24 00 3d d6 79 99 bd e7 49 6b 3e
       0.3726348 0.03128438 -0.074939415 0.2297741
000040 e1 f3 8e be 43 c8 09 3e 74 05 22 3e c4 fb a7 bd
       -0.2792044 0.134553 0.15822393 -0.08202317
000050 98 a6 8d 3d a3 47 4a bd d6 26 d5 bd e8 45 62 3e
       0.06916541 -0.049384724 -0.10407798 0.2209698
000060 00 b3 8a bd 2e 1b 2b 3e 91 68 86 bd ce c3 00 3d
       -0.06772423 0.16709587 -0.06562913 0.031436734
000070 fc ba 24 be 18 4d 8f 3e c6 bb 3c be dd 48 e4 bd
       -0.16086954 0.27988505 -0.18431005 -0.1114671
000080 d5 78 73 3e 23 1f e5 3c cc c7 68 be 10 5f 04 be
       0.23776563 0.027968949 -0.22732466 -0.12926888
000090 31 6b e2 bd f4 98 bf 3d 7b e9 99 3e e4 e9 c9 bd
       -0.110556014 0.09355345 0.30060944 -0.09859064
0000a0 9e d5 e2 3d ca d3 91 be 6c 22 df bd f9 88 12 3e
       0.110759005 -0.28481895 -0.10895237 0.14310063
0000b0 0b d5 38 bc a9 a3 7e 3e 21 a0 24 be 13 a8 4c 3e
       -0.011281262 0.24867119 -0.1607671 0.1998599
0000c0 5c a4 8b 3e 84 85 96 3d 5e 16 1d 3e da 52 3a be
       0.27273834 0.07349685 0.15340564 -0.18195668
0000d0 85 46 92 3e 73 71 bb 3e ae 01 46 be 4b 2b 1c 3d
       0.28569427 0.36609992 -0.19336578 0.038127225
0000e0 e0 32 5a 3e 5c 5e 2a be 2f 61 2d 3e 2f 2b 9e bd
       0.2130847 -0.16637558 0.16931604 -0.0772308
0000f0 05 98 27 be f9 f9 2c be 54 fe 3e bd 6a 17 12 3e
       -0.16366585 -0.16892232 -0.046629265 0.14266744
000100 6d 28 92 bd 1b 3a 43 3e 0c d5 8c 3d db c9 ab 3d
       -0.07136617 0.19065134 0.06876573 0.0838811
000110 79 2b 3f 3e a6 9e 85 3e de 1b 63 3e 65 bd 0a be
       0.18668927 0.26097602 0.22178599 -0.13548811
000120 ac 4b 47 3e c1 e7 ba be 42 0e 59 3e f5 7c b2 3c
       0.1946246 -0.3650494 0.21196845 0.0217881
000130 ca 21 69 3d f2 aa 63 bc aa 03 43 be 89 e2 47 3e
       0.05691699 -0.013895737 -0.19044366 0.1952001
000140 bf 0d d3 bd b0 0c c2 bd ef eb 62 bd b8 83 28 3e
       -0.10305356 -0.09475076 -0.055400785 0.16456497
000150 45 98 46 3e af 0e 1f 3e de 5d 3d bc c1 df ae 3e
       0.19394024 0.15532945 -0.011558024 0.34155086
000160 dd 4e 6c bd f3 65 a5 be a4 77 28 3e a5 d7 e4 3b
       -0.057692397 -0.32304344 0.1645189 0.0069837146
000170 71 2b 9a bd ae ed 43 3c 4b 0b eb 3d 02 fb 96 3e
       -0.07527817 0.011958523 0.11476763 0.2948838
000180 e6 f9 5d be 3a d3 e2 bd 63 cd 65 3d 6f cc 23 3e
       -0.2167736 -0.110754445 0.056104075 0.15995954
000190 6c a6 72 be dd c1 e3 bc 30 34 78 3c 25 e9 44 bd
       -0.23696297 -0.027802402 0.015149161 -0.048073906
0001a0 a1 ee 29 3e b2 f3 58 3d eb e7 dd bd fb 66 37 be
       0.16594936 0.05296678 -0.108352505 -0.17910378
0001b0 4c 0a 48 bd 4e 69 83 be d8 cc aa bd d2 90 da 3e
       -0.048837945 -0.2566628 -0.08339852 0.42688614
0001c0 b5 8f 36 be df c8 af bd 55 a4 15 be d1 d4 9c bc
       -0.17828257 -0.08583235 -0.14613469 -0.019144448
0001d0 11 b3 55 be 94 74 84 bc 29 18 ac be 54 0b 6b bd
       -0.2086909 -0.01616887 -0.33612183 -0.05738385
0001e0 5c 9d 02 bf d1 80 3a 3d 3b 8c 1b bd 32 85 bf 3d
       -0.5102136 0.045533005 -0.03797553 0.09351577
0001f0 68 24 4c bd 15 bf fc 3d 24 b7 21 bd 72 ef 13 3e
       -0.049839407 0.123411335 -0.039481297 0.1444681
000200 f5 15 ec 3c ba 11 7c be 01 5e 1f 3e 27 d5 8b bd
       0.028819064 -0.24616137 0.15563203 -0.06827765
000210 db 72 3c ba 3d dd f0 be 4e 06 c6 bd 2b 6e 6b be
       -0.00071887457 -0.4704379 -0.09669171 -0.22991244
000220 a3 41 d2 3d 25 10 b7 bd 3e bc 23 3e 60 b4 cb bd
       0.102664255 -0.08938626 0.15989777 -0.09946513
000230 ec 3c c3 bd 6c 01 60 3e d2 e5 1b bc 2a 1b 3c bd
       -0.09533104 0.21875542 -0.009515243 -0.045924343
000240 28 e8 4b bc 76 cb 7a bd 75 e8 1d 3e 30 e5 b5 3e
       -0.012445487 -0.06122919 0.15420707 0.3552642
000250 ce 64 07 bd aa bb 4f 3e 1c 86 b3 3d 5b 4b 89 bc
       -0.03305512 0.20286432 0.08765814 -0.016759565
000260 15 56 82 be 7e b1 33 3e 0a f7 ab 3d d8 76 22 3e
       -0.254563 0.17548177 0.08396728 0.15865648
000270 64 4a d8 bd 23 4a 87 be 55 b6 8a be 37 81 b9 3e
       -0.10561064 -0.2642375 -0.27092233 0.36231396
000280 ba 6c c2 3c 75 10 6a be 71 a0 44 3e cf 4e d8 3c
       0.023733485 -0.2285784 0.19201829 0.026404766
000290 13 d2 fc bc c0 5d 93 3d f4 1f 2c be 62 a4 72 be
       -0.03086189 0.07195616 -0.16809064 -0.2369552
0002a0 3e 7d 40 bd 79 fc 74 3e f4 d9 47 be 1c 3a 35 3e
       -0.04699444 0.23924436 -0.19516736 0.17697948
0002b0 2b 21 52 bd 82 a1 87 3d 68 81 59 be 4f 54 52 3e
       -0.051301163 0.06622602 -0.21240771 0.20539974
0002c0 cf b9 99 3d 34 23 2f bd 83 02 20 3e fe 54 08 be
       0.07506143 -0.04275818 0.15625958 -0.13313672
0002d0 28 eb 1a 3e aa 90 32 3d dc fa 54 3e 62 8f 46 be
       0.15128767 0.043594994 0.2079882 -0.19390634
0002e0 ec 93 73 3d bd 2b 40 3e 2e 4b b0 be 25 09 53 bd
       0.05946724 0.18766685 -0.34432358 -0.051522393
0002f0 51 6c 6f 3b 30 54 0a be 97 8a c9 3e 62 81 5b bd
       0.0036533067 -0.13508677 0.39363548 -0.053590186
000300 92 ac a9 3d 42 05 34 bb 23 21 1e 3c b2 10 00 bc
       0.08284868 -0.0027468954 0.009651455 -0.0078164805
000310 a1 38 b2 bd 8e 89 5e 3d 5f c4 c8 bd bf a9 b9 3e
       -0.08702207 0.0543304 -0.0980308 0.36262318
000320 99 2f 5f bd 20 65 8e 3e f1 46 ce be 51 22 d2 bc
       -0.054488752 0.27811527 -0.402885 -0.025651129
000330 8d 33 3c be a1 60 f6 bc 0d 8f 7e bd 5b b8 08 3e
       -0.1837904 -0.030075373 -0.062148143 0.13351576
000340 7d 7f b2 bd da ac 88 3d 8d 09 2d be e8 7b f9 3c
       -0.08715723 0.06673594 -0.16898175 0.03045459
000350 1b da 10 3e 77 54 de 3c 6c db ae 39 e9 5d cb 3d
       0.141457 0.027139885 0.00033351348 0.09930021
000360 7f 1d 8a be ee d7 96 3e f4 06 5c 3e 5d dc a0 be
       -0.2697563 0.29461616 0.21487027 -0.31418124
000370 60 4c 7a be 9f 3d c8 be 1b f9 88 bd 02 18 35 be
       -0.24443197 -0.39109513 -0.06688138 -0.1768494
000380 c5 29 4e bd 78 f2 89 3e 4a e0 b2 3c 1e 9f 8e 3e
       -0.050332803 0.269428 0.021835465 0.27855772
000390 43 65 94 bd c1 32 c9 3d 3d 9f 44 3e 20 71 38 be
       -0.07245877 0.09824134 0.1920137 -0.18011904
0003a0 72 5b 14 bd 96 bd ae 3d d6 69 1e 3e df f0 f5 3d
       -0.03622002 0.085322544 0.1547006 0.12008833
0003b0 60 b1 3d 3e 48 c7 09 3e ae b5 6d be f5 ca 2f 3e
       0.18524694 0.13454926 -0.23213837 0.17167266
0003c0 97 01 96 3e 27 25 1a be e7 84 82 bd c1 cb 14 be
       0.29298088 -0.15053235 -0.06373005 -0.14530851
0003d0 95 8b a0 be fb 5a dd 3d 93 b8 5a bd 10 a8 44 bd
       -0.31356493 0.10808369 -0.05339868 -0.04801184
0003e0 0a fa 06 be d6 05 0b be 3f 40 7a be af e8 97 3e
       -0.1318132 -0.13576445 -0.2443857 0.2966971
0003f0 07 e5 7c 3d 23 1a cc 3d 8e 3d da bd 94 29 4a 3e
       0.061741855 0.09965923 -0.10656272 0.19742423

mlp_extractor.policy_net.2.bias f4 [64]
000000 ec f2 3a b7 9e f6 68 b8 a0 ff 7c 37 9c 22 e8 b8
       -1.1143024e-05 -5.554279e-05 1.5079888e-05 -0.000110690686
000010 72 59 35 37 da 17 e7 b8 19 62 ff b8 62 68 86 b8
       1.0809266e-05 -0.00011019381 -0.0001217762 -6.409061e-05
000020 d7 d2 13 b9 1b a0 ca 38 0f 59 9b b8 88 cf 8b 38
       -0.00014097556 9.6619326e-05 -7.4075644e-05 6.666692e-05
000030 da f8 8f b8 65 f7 58 37 45 bf ba 37 7f 20 04 38
       -6.8651236e-05 1.2932204e-05 2.2261995e-05 3.1501517e-05
000040 7c 02 a7 b8 22 15 44 b8 30 9a 1e 39 32 57 08 b9
       -7.963643e-05 -4.6749723e-05 0.00015125494 -0.00013002453
000050 93 35 33 39 f4 af 33 39 1b 03 51 37 b0 3c d2 b8
       0.00017090728 0.00017136318 1.2458094e-05 -0.00010024884
000060 18 ea fa b7 37 15 0a b9 be 8f 14 b9 c6 20 28 39
       -2.991133e-05 -0.00013168609 -0.00014167928 0.00016033938
000070 a7 f8 c9 37 37 3f 27 39 fd 9a e4 38 99 be c7 38
       2.4076855e-05 0.0001594991 0.00010900756 9.524561e-05
000080 c8 fe fe 38 a1 5c 29 37 1a f4 85 b8 94 c0 0c 39
       0.000121591205 1.0094752e-05 -6.387402e-05 0.00013423181
000090 8b 1b 2d b7 ef b2 54 b8 76 3a a2 38 cd d2 e7 b8
       -1.0318016e-05 -5.0711384e-05 7.735651e-05 -0.00011054203
0000a0 63 40 13 39 f4 69 c7 38 c1 e6 22 b9 b5 1b 35 b9
       0.00014042998 9.508795e-05 -0.00015535486 -0.00017271827
0000b0 e8 43 70 37 cd c5 cf b8 5c d8 24 b9 8a a5 ad b7
       1.4320925e-05 -9.9073724e-05 -0.00015720859 -2.0700292e-05
0000c0 c4 9e cc 37 12 ad 85 b6 fe 08 eb 38 e8 53 48 b9
       2.4392626e-05 -3.983857e-06 0.00011207348 -0.00019104744
0000d0 6e 71 82 b8 f3 e9 18 b9 7a d6 14 39 0b 32 89 35
       -6.220011e-05 -0.00014583002 0.00014194279 1.022186e-06
0000e0 57 58 9d 37 f8 11 da 38 03 40 f0 37 5f 21 1f b9
       1.8756995e-05 0.00010398397 2.8640037e-05 -0.00015175853
0000f0 7a 72 30 39 24 fc b8 b7 cd ec 11 b8 74 d4 46 b9
       0.00016827314 -2.2051921e-05 -3.4791232e-05 -0.00018961896

mlp_extractor.value_net.0.weight f4 [64, 1426]
000000 c9 5c 70 bd 7a 66 15 3d 4a ef 10 3b 9e 62 59 3d
       -0.058682237 0.036474682 0.0022115284 0.053072564
000010 aa 94 4b 3c 9a da 49 3a 79 d5 9a ba f0 4c 5f bd
       0.012425581 0.00077001157 -0.0011812887 -0.054516733
000020 93 c6 01 bc 28 a8 db bc 00 8e 2e bd 3c 63 da bb
       -0.007920879 -0.026813582 -0.04261589 -0.0066646617
000030 a4 25 95 bd fa de 3c bc d0 6e 0a bd f9 6a e3 bc
       -0.0728257 -0.011527771 -0.033797085 -0.02776097
000040 8d 0a 88 bb bb 77 97 3d 2c 8d 11 3c c1 6d 70 3c
       -0.0041516484 0.07395884 0.008883756 0.014674605
000050 45 06 aa 3c 5a a5 25 bc 29 ab 22 bc 3e 0c f4 ba
       0.020754943 -0.010110224 -0.009928503 -0.0018619371
000060 2b dc 69 3b 95 96 bf bc bf d2 07 3d 17 b3 6f 3c
       0.003568421 -0.023387233 0.033159968 0.014630101
000070 7d ed a5 bd bf 72 63 3c 68 48 5f bd d9 e7 5e bd
       -0.08101938 0.013882338 -0.05451241 -0.054420326
000080 72 cd 19 bb e8 1e a5 3b bf 41 ae bd af 38 d9 bc
       -0.0023468402 0.0050390847 -0.08508634 -0.026516287
000090 2f c6 76 bd 19 22 54 3d 2a d7 f1 bc 24 6d 02 3d
       -0.060247596 0.05179033 -0.029521544 0.031842366
0000a0 f7 e2 83 bc 2b 92 2d bd c9 39 f3 bc 88 81 6f 3d
       -0.016099436 -0.042375725 -0.02969064 0.05847314
0000b0 5e ef 10 bd e8 8c ad ba db 2b 58 3d 05 a8 40 3d
       -0.03538453 -0.0013240846 0.0527762 0.047035236
0000c0 3a f7 48 bd 2a 71 a5 bd 83 b8 e0 3c 53 d0 1e bd
       -0.0490639 -0.08078225 0.027431732 -0.038772892
0000d0 05 de 23 3d cb af 31 bc ec bd c2 bb ac d0 a9 bb
       0.040006656 -0.010845135 -0.0059430506 -0.0051823463
0000e0 1d 57 e6 3c db 3f 29 bc d8 06 09 bb e4 99 d5 ba
       0.02811771 -0.010330166 -0.002090862 -0.0016296473
0000f0 7f 9e 03 3d d7 bb 4b 3d bc ad ae bc f8 08 1e 3d
       0.032133576 0.049739685 -0.021323077 0.038582772
000100 9f 06 68 bd f5 6a 74 bc b4 d5 be bc 9c f6 f1 bc
       -0.05664694 -0.014918079 -0.023295261 -0.029536538
000110 fc c3 91 bc a0 b5 d5 bc 2e 57 9f bc 3a b6 6c 3d
       -0.017793648 -0.026087582 -0.01945075 0.057790972
000120 e3 4f 85 bc eb ed 8e 3d 0c 87 c9 bc 3f 88 3f bd
       -0.016273445 0.06978973 -0.024600528 -0.046760794
000130 3d 13 d3 3b 92 77 c5 bc 27 64 53 bd b8 87 8d 3c
       0.0064415024 -0.024104867 -0.051609185 0.01727663
000140 c8 34 0c bd bc ef 40 bd 2f 5c e4 3b fc 95 51 3c
       -0.034230024 -0.04710363 0.006968997 0.012792107
000150 4d 97 d0 3c b1 65 83 bb 04 e3 50 bd a8 52 1a bd
       0.02546277 -0.0040099253 -0.05099775 -0.037676483
000160 ce 6a 01 bd 1d ce 2b 3d 63 32 f9 bc d3 a4 e5 3c
       -0.031595998 0.04194461 -0.030419534 0.028032696
000170 c0 62 2c bd d6 2e ce bc 73 13 5e bd a1 19 11 bc
       -0.042086363 -0.025168817 -0.054217767 -0.008856208
000180 64 4e d3 3b 1a 29 22 bd 3d be 8d bc e8 cb 28 3d
       0.006448554 -0.03958998 -0.017302627 0.041210085
000190 47 3a 9e 3d b3 d1 36 3d e7 71 0c 3d 9a 18 90 bc
       0.07725959 0.04463358 0.034288313 -0.017589856
0001a0 f2 dd 20 bd 3c e1 70 3d ae 61 b9 3d fa 8b 62 3d
       -0.039274164 0.05880855 0.09051834 0.055309273
0001b0 e7 21 64 3d cd bf 6c 3c 7b 05 f1 bc 09 11 8f bd
       0.055696394 0.014450026 -0.029421559 -0.06985671
0001c0 92 b2 c8 bc f5 51 8b 3d bb 92 f8 bc 4c 9e 8f 3c
       -0.024499211 0.068027414 -0.030343404 0.017531537
0001d0 be fc ff 3c fb 58 ca 3c e9 01 54 3c 95 ec dc 3c
       0.031248447 0.024700632 0.012939909 0.02696828
0001e0 3c bb 46 3d b3 da c0 3c e9 97 59 3d bd 41 a7 3c
       0.048518404 0.023541784 0.05312339 0.020417089
0001f0 5a ca e5 3c 4b b1 83 3d 89 73 24 bc c9 1c a1 3c
       0.02805059 0.064303 -0.010037311 0.019667046
000200 f7 37 55 3c ab 69 8a 3c 39 9f 0c 3d 38 98 e6 bc
       0.013013831 0.01689609 0.034331534 -0.028148755
000210 1d f6 3e bd 2c 98 f5 bc 99 08 d7 3b 81 60 b4 bc
       -0.04662143 -0.029979788 0.006562304 -0.022018673
000220 8e 4c d6 bc ef 3e 03 3d 53 54 cd 3c 4d bf fb bc
       -0.026159551 0.03204244 0.025064623 -0.030730868
000230 bb 95 c0 3d ae a5 b1 bd 1f 4c 61 bc 5f c7 51 bd
       0.09403559 -0.08674179 -0.013751059 -0.051215526
000240 9d f1 c4 3b f1 70 04 3c 84 fe 14 bd d8 7e 0f 3d
       0.006010248 0.008083568 -0.036375538 0.035033077
000250 60 e0 55 3b 7d ca 0f bd 9e e5 0c bd 21 bb b9 bc
       0.0032634959 -0.035105217 -0.034398668 -0.022672238
000260 32 cf b1 3b e3 ab 19 bd 27 91 e8 bc cb 0f 12 3d
       0.005426311 -0.03751744 -0.028389527 0.035659593
000270 28 fb 55 3d c4 65 57 3c 7f 11 79 3c 72 e9 a5 3c
       0.052241474 0.013146821 0.015201925 0.020252917
000280 65 eb 12 3d 7b c1 35 bc b1 99 14 3c 50 fb c3 bc
       0.03586902 -0.011093493 0.009069846 -0.023923546
000290 59 53 9a 3c 6f c0 21 3d 99 b3 0c bc 42 bc ad 3a
       0.018838571 0.03949016 -0.008587741 0.0013254958
0002a0 7c ca c8 3b a4 e5 04 3d 13 01 7e bc 35 a6 58 3c
       0.0061276536 0.032445565 -0.015503186 0.013223221
0002b0 95 04 b4 bd 67 a4 47 3d f9 9e 53 bd 13 9f 6e bb
       -0.087899365 0.04874077 -0.05166528 -0.0036410734
0002c0 83 5b e8 bb 9d 7f d4 3c 1b c7 93 bc 41 c6 26 3d
       -0.007090987 0.025939757 -0.018039277 0.040716413
0002d0 4b 85 56 bd 48 79 a8 3c af 5a a9 bc 31 0c 72 bb
       -0.05237321 0.020565644 -0.020673124 -0.0036933536
0002e0 6a fd 10 bd 19 9f 8c 3b 9e e7 3a 3d 22 59 10 3a
       -0.035397924 0.004291427 0.045631044 0.0005506446
0002f0 9b 28 55 3c df 29 b0 3c a4 39 38 bd c1 ee 53 ba
       0.013010169 0.02150434 -0.044976845 -0.00080845883
000300 e6 80 54 bd e1 03 4c 3d 22 71 37 3a 34 e6 9b 3c
       -0.05188074 0.049808387 0.0006997754 0.019030668
000310 29 f6 8a 3d a2 e1 58 3d 0a 72 8d bc c9 3c fa bc
       0.067852326 0.052949555 -0.017266292 -0.030546563
000320 b7 f6 15 3d 2f 24 73 3d 68 c3 8b bc bb 03 2f bd
       0.03661224 0.05936068 -0.01706095 -0.042728167
000330 ea ca 83 bc 5d cf 4c bd f3 6b e1 3b 03 9e a9 3a
       -0.016087968 -0.050002445 0.0068793236 0.0012940768
000340 08 84 97 bc fb 76 f1 bc c0 60 2d bd c8 a1 81 3c
       -0.018495575 -0.02947568 -0.042328596 0.015824214
000350 8b 92 27 3d 83 05 0f bc 74 d9 81 3a 46 e0 c9 3c
       0.04091124 -0.008729341 0.0009906725 0.024643075
000360 c2 a7 0d 3d 45 87 56 bc 22 d8 54 3d 46 95 fa bb
       0.034583814 -0.013093774 0.051963933 -0.0076471893
000370 84 a0 9d 3c d7 8a 5f bd 6e 8a 94 bc 94 e9 83 3d
       0.019241579 -0.054575767 -0.018132415 0.06441036
000380 63 90 05 3d f7 15 cd 3c 7c f7 0f bd 0e 1c d1 3b
       0.0326084 0.025034888 -0.03514813 0.006381518
000390 a3 5e 13 3d bd 68 66 bd 4a 3f 46 bd a0 23 59 3c
       0.035978924 -0.05625223 -0.0484002 0.013253123
0003a0 d5 31 43 bd dc 1e 2b bc 5f ff 05 bd a7 2b 16 3c
       -0.047654945 -0.010444369 -0.032714244 0.009165681
0003b0 48 52 80 3c 43 53 5a bd a8 c4 68 bc 81 e9 6f 3c
       0.015664235 -0.05330206 -0.014207043 0.014643074
0003c0 b5 cf b1 bc 36 37 91 bc da c3 62 bd db 0f 77 3c
       -0.021705488 -0.017726522 -0.05536256 0.015079464
0003d0 66 26 20 3a 2e c6 40 3d d8 c2 cf ba 78 0f 8b bc
       0.00061092374 0.047064 -0.0015850915 -0.01697515
0003e0 e6 39 af bb 33 ab 81 3c 2a 6e b1 bc 73 9c eb bc
       -0.005347478 0.015828704 -0.021658976 -0.028761124
0003f0 4f 2e 6b bd 06 e8 b0 3c 06 0a d7 3b 42 fc 96 3c
       -0.05741721 0.021595012 0.006562474 0.018430833

mlp_extractor.value_net.0.bias f4 [64]
000000 8f 70 d4 35 d3 0b e4 3b 97 1b 0a 3a 13 b2 44 39
       1.582799e-06 0.0069594174 0.00052683934 0.00018758354
000010 00 00 00 00 30 28 c9 b8 1f 78 6d 3c 00 00 00 00
       0.0 -9.5919124e-05 0.014493971 0.0
000020 ae 09 f7 3a c1 92 1a 3b c3 66 77 b7 c6 ea b3 bc
       0.0018847489 0.0023586007 -1.4746273e-05 -0.021962535
000030 51 52 bd 3c 85 3d 21 b8 00 00 00 00 00 00 00 00
       0.02311054 -3.8442686e-05 0.0 0.0
000040 27 dd 14 b7 78 f4 ed 38 a7 b3 e3 ba 68 47 96 bc
       -8.8729785e-06 0.000113465765 -0.0017372266 -0.018344596
000050 97 c3 58 3c ce d7 92 3c 2b 8c 26 3c f0 01 c9 ba
       0.013230226 0.01792517 0.010165255 -0.001533566
000060 0e 18 8a 3c c7 66 16 bc a2 a5 5c 37 00 00 00 00
       0.016857173 -0.0091797775 1.3151586e-05 0.0
000070 00 00 00 00 00 00 00 00 00 00 00 00 00 00 00 00
       0.0 0.0 0.0 0.0
000080 78 bd ac b3 37 77 2e 3b 18 db 2e bc 76 ab e2 37
       -8.043838e-08 0.002662135 -0.010672353 2.7021142e-05
000090 14 09 9d 37 00 00 00 00 00 00 00 00 7f 1f 3a 3c
       1.8720086e-05 0.0 0.0 0.011360048
0000a0 0a bb 9d 3c c8 75 8e ba f0 8a e9 38 00 00 00 00
       0.019254226 -0.0010868842 0.00011136185 0.0
0000b0 00 00 00 00 71 68 df bc 19 f4 49 39 ad 36 e3 bb
       0.0 -0.027271481 0.00019259787 -0.006934008
0000c0 f5 29 92 af 14 94 64 30 c7 8a eb bc 08 ae d0 bc
       -2.6587058e-10 8.315635e-10 -0.028752698 -0.02547361
0000d0 00 00 00 00 98 84 40 3c 00 00 00 00 00 00 00 00
       0.0 0.011750363 0.0 0.0
0000e0 56 0f a9 3b 00 00 00 00 00 00 00 00 00 00 00 00
       0.005159299 0.0 0.0 0.0
0000f0 00 00 00 00 4a 7f 84 bc 3f 2a 18 b9 d2 7e a4 bb
       0.0 -0.016173977 -0.00014511588 -0.005020001

mlp_extractor.value_net.2.weight f4 [64, 64]
000000 3b f9 61 3e 00 09 1e 3e e6 b9 09 3d 59 ce 97 bd
       0.2206773 0.1543312 0.033624552 -0.074124046
000010 70 3f 46 bc 52 6f 1e be a9 e6 40 3e 85 a7 30 3e
       -0.012100086 -0.15472153 0.1883799 0.17251404
000020 01 df 25 bb 7e a7 8c 3e 4a 38 af 3e 79 d0 e1 be
       -0.0025309923 0.27471536 0.34222633 -0.44104365
000030 e7 08 3a be 2b c3 e3 3d 76 2b 77 3d b1 a2 c8 bc
       -0.18167458 0.1112121 0.060344182 -0.02449164
000040 13 ac ed bd 4d 71 87 3d a6 83 ce be 62 6b 21 bd
       -0.11605086 0.06613407 -0.40334815 -0.03940905
000050 06 28 88 3d b9 33 fa 3d 75 c0 12 be 60 56 16 be
       0.06648259 0.122168966 -0.14331229 -0.14681387
000060 17 d0 ac 3e 1b 35 82 3e 65 a4 64 3e 97 3e 6e 3e
       0.3375251 0.2543114 0.22328337 0.23266064
000070 c1 5f 02 be a0 da fd bc 10 e1 d7 3b 73 f6 a0 3d
       -0.1273184 -0.030988038 0.006588109 0.078595065
000080 d0 5a 8c bd a8 05 36 3e e7 ab 85 be ad d1 b6 3e
       -0.068532586 0.17775595 -0.26107714 0.35706845
000090 de 7c 3b 3e 43 b0 a2 be d8 a5 2a 3e c7 18 9b 3e
       0.18309352 -0.31775102 0.16664827 0.3029234
0000a0 de d3 83 bd 86 17 60 be 74 2b 8d 3c 4f f4 89 3d
       -0.06436895 -0.21883973 0.017232634 0.06736051
0000b0 63 c4 44 be 76 24 df bd 0c b6 ad 3e 6f dc 4b be
       -0.1921554 -0.10895626 0.33927953 -0.19908307
0000c0 f1 b1 49 be 45 26 af 3d 9b d5 ee be 1b 5e 4f be
       -0.19696786 0.08552221 -0.46647343 -0.20250742
0000d0 95 a4 d9 bd da 11 ad 3d ac 7a 4f bc f3 02 16 bd
       -0.10627095 0.084506705 -0.012663525 -0.036623906
0000e0 03 cf 80 3e 04 e5 af 3d 05 03 b5 be fb dd 2a 3e
       0.25157937 0.08588603 -0.35353866 0.16686241
0000f0 11 d2 9c 3e 95 58 74 be 3b 0e 09 be 60 bf 17 bc
       0.30629018 -0.23861916 -0.13384335 -0.009261936
000100 b7 04 90 3e 0b c7 e6 bb a6 23 28 3e d6 4b e5 3d
       0.28128597 -0.0070427707 0.16419849 0.11196105
000110 4c 9b 6f be 40 1a 38 bd bd f9 29 be 98 51 e8 bd
       -0.23399085 -0.04494691 -0.16599174 -0.11343688
000120 ed 22 91 3e 10 2b 11 be 01 64 3a 3d 19 d6 0f 3d
       0.2834696 -0.14176583 0.045505527 0.03511629
000130 62 59 c6 bd fc 97 a9 be 1c bd ec 3d e6 35 a0 3d
       -0.09685017 -0.33123767 0.11559507 0.0782278
000140 6a d2 2b be c7 b7 ff 3e f9 43 24 be 84 a0 d8 bd
       -0.16779485 0.49944898 -0.16041555 -0.10577491
000150 6b 08 0d 3f 2a a9 c3 bd aa 93 62 3d b9 dd 0c 3e
       0.5509097 -0.0955375 0.055316605 0.13756455
000160 d4 d1 ea 3c 2b 27 cd bc ab 0c 49 be e6 c0 4e 3e
       0.028664507 -0.02504309 -0.19633739 0.20190772
000170 48 d8 12 3e 2e 1e 96 bd 5a a6 94 3c 1a 55 18 bd
       0.14340317 -0.07329975 0.018145729 -0.037190534
000180 54 a7 28 bc 66 bc 29 be 9a 91 9e bd 87 b4 f9 3e
       -0.0102938 -0.16575775 -0.07742615 0.48770544
000190 98 be fc 3d 6a 95 82 3e 2d 4f bf 3c 2f ce c3 3e
       0.123410404 0.2550462 0.023353184 0.38243243
0001a0 57 4c 58 3e 78 c0 3a bd 28 83 3e 3e 2e 0f 80 bd
       0.21122871 -0.04559371 0.1860472 -0.06252895
0001b0 e2 e6 a7 3d 3f 3c 35 be 12 9a ad bc 03 d2 9c be
       0.08198334 -0.17698763 -0.02119163 -0.30628976
0001c0 c6 72 98 be 5c bd f2 3d 84 7b 69 bb 46 af b2 be
       -0.29775065 0.11852524 -0.00356266 -0.34899348
0001d0 d3 ee 2c be cc 17 05 3f 19 b7 3d be 24 1a 9c bd
       -0.16887979 0.51989436 -0.18526877 -0.076221734
0001e0 99 be 01 be ab 17 ff 3d df 4f 12 3d 55 56 46 3e
       -0.12670363 0.12455686 0.035720702 0.1936887
0001f0 34 a3 96 3e 7a 2b 18 bd af 13 23 3d 5b 38 54 be
       0.2942139 -0.037150837 0.039813694 -0.20724623
000200 d6 97 c2 bd af a4 a3 be a6 59 5b be 9d 7c a7 be
       -0.09501617 -0.3196158 -0.21420917 -0.3271226
000210 db 9d 42 3e b4 ac 0e 3d ea 03 da be 7a 25 b2 bd
       0.1900553 0.03483267 -0.4258111 -0.08698554
000220 50 22 09 3e 22 1d 3e 3d 99 59 09 be 0d 1a 07 3f
       0.13391995 0.046414502 -0.13413085 0.52774125
000230 99 50 86 be 80 0a 14 3e af 96 f2 bd e7 44 bb be
       -0.26233366 0.1445713 -0.11845147 -0.36576006
000240 9d 52 69 3d b2 bc 70 be aa 82 d6 bd a0 7a 37 bd
       0.05696355 -0.23509482 -0.10474141 -0.04479468
000250 36 f2 05 3e b4 1f 2f 3d 0e f6 95 3b 55 b4 48 be
       0.13080677 0.042754844 0.004576451 -0.19600041
000260 9b c9 10 3e 96 b8 c1 3c 5d b1 7f be 44 8a e8 3d
       0.14139406 0.023647588 -0.24970002 0.11354497
000270 30 17 10 3e 7f 3b 85 3e a8 8c b2 3d 56 ec 20 3d
       0.14071345 0.26021954 0.08718234 0.039287888
000280 0e 30 11 3d f8 22 02 3e 44 2f 34 3e b6 e1 98 be
       0.03544622 0.12708652 0.17596155 -0.29859704
000290 b6 d3 3d be 3f 58 e8 bd 04 b4 b4 be 6b c3 59 3d
       -0.18537793 -0.113449566 -0.3529359 0.05316488
0002a0 c2 4e 08 be 38 73 56 bd 52 09 9a be bc 3c 05 3d
       -0.13311294 -0.052355975 -0.30085236 0.032528624
0002b0 12 4b b7 be 11 c0 03 3e 1a 36 f5 bd eb 6a 86 be
       -0.35799462 0.12866236 -0.1197321 -0.26253447
0002c0 f9 84 00 bd b6 94 2c be fd 91 b9 3d 12 6f a7 3d
       -0.031376813 -0.16853604 0.09061048 0.08175482
0002d0 46 37 24 3e d9 bc 7e be 55 c5 90 be 29 89 21 bd
       0.1603671 -0.24876727 -0.28275552 -0.039437447
0002e0 54 ab 48 be 13 ab 88 be 57 aa 39 be 30 88 d4 be
       -0.19596606 -0.2669302 -0.18131386 -0.41510153
0002f0 0e d5 17 be 15 6c a7 bc d0 94 8f 3d 77 1a 01 3e
       -0.14827368 -0.02043728 0.070108056 0.12607752
000300 48 ba a6 3e 49 f8 e7 3c 60 08 40 3c cc 19 15 3e
       0.32563996 0.028316634 0.011720747 0.14560622
000310 24 69 24 be b6 c5 54 be 16 ad a1 3e a8 80 20 be
       -0.16055733 -0.20778546 0.31577367 -0.15674078
000320 d4 b6 8d bd 7a a3 8b be 9a d3 39 3e 58 47 bf 3e
       -0.06919637 -0.2727316 0.18147126 0.37359118
000330 d3 a4 31 bd a3 66 dc be b4 26 49 3e 82 6e fa 3d
       -0.04337008 -0.43047056 0.1964367 0.12228109
000340 21 fb 6a 3d 03 9b ba 3d de 23 97 be 40 8e d2 3b
       0.0573684 0.091115974 -0.29519552 0.006425649
000350 5c 71 fa bd 68 95 23 bd ac fa bf 3d 49 3f 5a be
       -0.12228653 -0.039937407 0.09373984 -0.21313204
000360 13 f6 25 3e 57 7b 01 3e 0f 31 d3 3d 60 81 88 3e
       0.16207151 0.12644707 0.103120916 0.26661205
000370 56 be d9 bd e7 e4 d8 be 83 06 a4 3e f4 53 42 be
       -0.10632007 -0.4236214 0.32036218 -0.18977338
000380 88 d1 76 be a5 bb 29 3e f8 b5 72 be e4 12 bd 3c
       -0.24103367 0.16575487 -0.23702228 0.023080297
000390 58 a9 a8 bd c8 86 3b 3d ba 6d 52 3c b1 ae ba bd
       -0.08235425 0.045782834 0.012843544 -0.09115351
0003a0 15 e4 78 3d e7 11 56 bd 5e 29 6a 3e ec 56 99 be
       0.06076439 -0.052263167 0.22867343 -0.2994913
0003b0 c4 5e 43 3e 75 7a 93 bd 79 56 ae 3d 15 f0 26 be
       0.19079119 -0.07201091 0.08512587 -0.16302522
0003c0 e2 ad 45 be fa d2 ac 3e dc c0 b4 be 22 59 d1 3e
       -0.19304612 0.33754712 -0.3530339 0.40888315
0003d0 dd 96 9c be 07 b6 48 3e 1c ab 62 3e 2a 22 db 3d
       -0.3058385 0.19600688 0.22135586 0.10699876
0003e0 81 95 2f be 15 f0 c9 3e 98 bd 79 be f4 b4 64 bb
       -0.17146875 0.3944098 -0.2438873 -0.0034897896
0003f0 74 12 c7 3e 37 a8 9c bd ea bd 41 3d be 97 66 bd
       0.38881266 -0.07649272 0.047300257 -0.056297056

mlp_extractor.value_net.2.bias f4 [64]
000000 42 b7 8f 3d 17 ec c4 3d a9 b8 ce bd e2 a9 e6 3d
       0.070173755 0.09615343 -0.10093815 0.11262871
000010 49 e8 e5 3d 2b 66 cf bd 0f 43 d1 bd 6e 65 be 3d
       0.112259455 -0.10126909 -0.102178685 0.0929669
000020 2a ea 63 bd 3f d1 9e 3d 98 94 e4 3d 1d 5d ce bd
       -0.055643238 0.07754754 0.111611545 -0.10076354
000030 8f 8a b5 bd 52 aa b0 bd 5f c9 e5 bd 9d 1a e7 3d
       -0.088643186 -0.08626236 -0.11220049 0.11284373
000040 16 a1 c4 3d 5f 7f c8 3d 49 0b b5 3d 66 26 c4 3d
       0.09601037 0.09789919 0.08840043 0.095776364
000050 4c 50 ae 3d 71 4c d4 bd b2 56 bc 3d 0f 95 0b be
       0.08511409 -0.103661425 0.09196223 -0.1363108
000060 77 8c 05 be 81 9f af bd 9d 6f c4 bd b8 20 cc 3d
       -0.13041864 -0.08575345 -0.09591601 0.09967178
000070 1d bf 05 3e 1b 7f ce bd e2 a0 c9 bd af 65 c8 3d
       0.13061185 -0.10082837 -0.09845139 0.097850196
000080 4d c5 cc 3d 66 0c ee 3d 25 8e 99 bd c6 df 02 3e
       0.0999857 0.116234586 -0.07497815 0.12780675
000090 78 c0 f4 bd 74 1b b7 3d 2b 6b 82 bd e5 ed 8a 3d
       -0.11950773 0.08940783 -0.06368097 0.06783656
0000a0 5f 5f 11 be dc b2 bc 3d af 62 e7 3d 33 78 e6 bd
       -0.14196537 0.09213802 0.11298119 -0.11253395
0000b0 53 98 e3 bd e5 15 08 be 0c ca e7 3d 0e 3c ba 3d
       -0.11113038 -0.13289602 0.11317834 0.09093486
0000c0 60 e5 f3 bd 5d bd 9d bd 42 82 c5 3d 96 d9 a7 3d
       -0.11908984 -0.07702134 0.09643985 0.08195798
0000d0 d3 b3 db bd 3e 66 e1 bd 8b 24 f8 3d 17 6b 03 be
       -0.10727658 -0.11005829 0.12116345 -0.1283382
0000e0 ba c9 a0 bd 9a 87 d3 3d 51 fb c2 3d ff 3b 7a 3d
       -0.07850976 0.10328598 0.09520591 0.061092373
0000f0 f1 1d e0 bd 46 ca c2 3d 81 fd f6 3d cf a9 da bd
       -0.10943211 0.09511237 0.12060071 -0.1067692

action_net.weight f4 [1, 64]
000000 71 1b 54 3a cc ac bf ba 38 d7 ac 3a 7f 55 63 3b
       0.00080912473 -0.0014623641 0.0013186699 0.003468841
000010 6c be a9 ba ff 82 3e ba 1c 2d 9c 39 42 1e 50 bb
       -0.0012950427 -0.0007267445 0.00029788248 -0.0031756316
000020 22 52 8f ba 28 f1 4d ba 2a ff 9b 39 e4 7e 2d 3a
       -0.0010934512 -0.00078560645 0.00029754016 0.00066183344
000030 7b b4 c9 ba 05 e8 e0 ba 20 30 a8 bb 47 2a e8 3a
       -0.001538887 -0.0017158991 -0.00513269 0.0017712795
000040 a7 9e 4b 3a cd 6f d6 bb 3d 39 fd ba 92 5f 8d 3a
       0.00077674765 -0.0065440894 -0.0019319427 0.0010785928
000050 27 da 1c ba 7c 9e e2 ba ee a7 96 3a 9d 2e 52 3a
       -0.0005983435 -0.0017289664 0.0011494139 0.000801781
000060 34 cc be 3a fb e7 d3 3a f1 67 ad 3a a3 f8 20 ba
       0.0014556707 0.0016167158 0.001322983 -0.00061405654
000070 02 06 ae 39 f0 0c ad b9 c2 ad 88 ba f8 5f bf b9
       0.00033192342 -0.0003300677 -0.001042776 -0.0003650186
000080 95 c6 d1 bb 8a 25 ee 3a 23 87 af 39 05 9d 33 bb
       -0.0064018467 0.0018169146 0.00033479286 -0.0027406823
000090 ca 72 2f bb e9 45 c2 3a 87 5c 1e 3a 25 7a a5 ba
       -0.00267713 0.001482186 0.00060410093 -0.0012624903
0000a0 2d 34 47 3b 0b c8 cd ba fe 1a 5d 3b ca 61 ea 3a
       0.003039609 -0.0015699876 0.0033738012 0.0017881927
0000b0 a7 ed 33 3b 6c 83 44 3a 81 f6 5a 3b 71 e3 2d 39
       0.0027454884 0.000749639 0.0033411088 0.00016583294
0000c0 fc 8f ec b9 d1 d8 1e bb 6d 29 34 bb c3 54 e5 3a
       -0.00045120704 -0.002423812 -0.0027490512 0.0017496574
0000d0 c5 bb 3b ba ce 29 fe 3a 32 42 36 bb 3f 72 5d 39
       -0.0007161464 0.0019391121 -0.0027810452 0.00021118762
0000e0 2b 0c 00 3b 65 8b d3 3a 75 d5 e7 39 92 03 82 3b
       0.0019538503 0.0016139565 0.0004421879 0.003967711
0000f0 c0 2e 0d 3a 05 c0 68 bb 72 a9 4f b9 f7 4b 61 b8
       0.00053856894 -0.0035514843 -0.00019804182 -5.3714928e-05

value_net.weight f4 [1, 64]
000000 05 d1 e9 bf 69 d6 d8 bf 0b 74 e8 3f 2c 13 ca bf
       -1.8266913 -1.6940433 1.8160414 -1.5787101
000010 fa 11 cb bf 80 c9 d6 3f 73 10 d3 3f a3 1b d4 bf
       -1.5864861 1.6780243 1.6489395 -1.6570934
000020 0a a2 c6 3f ec cf d9 bf 40 ff d4 bf d9 df d5 3f
       1.55182 -1.7016578 -1.6640396 1.6708938
000030 9b 8f d0 3f 26 64 d0 3f c4 ea d3 3f 37 47 cf bf
       1.6293825 1.6280563 1.655602 -1.6193608
000040 dd b0 d1 bf 1a fa c7 bf d9 e1 da bf f1 7a d1 bf
       -1.6382099 -1.56232 -1.7100173 -1.6365644
000050 c8 d4 cc bf 73 89 e7 3f 6d 8d c5 bf 36 fe c8 3f
       -1.6002436 1.8088821 -1.5433785 1.5702579
000060 d0 4a d6 3f 14 18 d3 3f 72 ad de 3f 78 92 cb bf
       1.6741581 1.6491723 1.7396681 -1.5904074
000070 3c 83 c9 bf b9 78 d2 3f 8b 45 cd 3f 5b 7c ce bf
       -1.5743175 1.6443092 1.6036848 -1.61317
000080 f9 17 db bf 3e c4 d2 bf 27 45 c8 3f ac aa cb bf
       -1.7116691 -1.6466138 1.5646104 -1.591146
000090 6c f4 ce 3f 74 b5 da bf a1 5b c5 3f 15 c5 e0 bf
       1.6168342 -1.7086625 1.5418588 -1.7560145
0000a0 7b e6 cd 3f fd 11 ce bf 84 9c ce bf bf 59 d3 3f
       1.6085962 -1.609924 -1.6141515 1.6511763
0000b0 61 82 dd 3f bb 71 d6 3f 9e e8 c9 bf fd ed c8 bf
       1.7305413 1.6753458 -1.5774114 -1.5697628
0000c0 8d cc d3 3f dc b1 ce 3f 7b 1d d3 bf 12 c4 e0 bf
       1.6546799 1.6148028 -1.6493372 -1.7559836
0000d0 da a2 de 3f 53 2b cf 3f 89 48 e5 bf 5c 67 c9 3f
       1.7393448 1.6185097 -1.7912761 1.5734668
0000e0 50 e3 c8 3f 7e 12 cc bf 75 4d d4 bf ff 7f fa bf
       1.569437 -1.5943143 -1.6586138 -1.9570311
0000f0 e9 56 da 3f 17 6c ce bf 63 25 e0 bf ef 5a cc 3f
       1.7057773 -1.6126736 -1.751141 1.5965251
